MovePaddle-61912.onnx (onnx, 75179 bytes, 6 tensors)

action_model._discrete_distribution.branches.0.bias f4 [3]
00000000: 46bf 88bb ed4b ff3b 0bf9 26bb
-0.004173192 0.0077910335 -0.002547803

action_model._discrete_distribution.branches.0.weight f4 [3, 128]
00000000: c39c 413b 9b7e 53bb 245b 9439 7885 373c
00000010: 0365 463c ecfd d3ba 250f 873c 2bab 2a3c
00000020: d0e1 babb da84 69b9 606d 4dbc 604c 0fbc
00000030: 389e 4c36 3792 6cbc 299e f43a a21a d5b8
00000040: 3190 9ebb 3aee 55bc cf88 0b3c 80c1 c23a
00000050: 2a7c c93a 3397 0d3c 5221 3d3c 5157 a9bb
00000060: f0b1 aabb c6ba 8c3b 7db6 193c 0e44 95bb
00000070: 3266 4d3b 2f50 2fbc 15a3 d0bb 180b da3b
00000080: 98eb 78bb 0585 36bc 3d34 8cbc 187e b03b
00000090: bf4a 073c 06bd a53b c207 f13b cf6e 3b3b
000000a0: c863 b53b 08d8 463c fdab d9bb 7912 ea3b
000000b0: 61a0 adbb af47 cfbb 470e 49bc 4f82 a73b
000000c0: 2849 c53c 12b6 613c 0b02 863b 15ba d8bc
000000d0: 28c1 693c e90c 3f3b b057 d8ba e392 32bc
000000e0: 733c 58bb a8e9 bf3b 5820 49bb be1e a1b9
000000f0: d1e2 4a3c 5797 ccbb df61 be3b 05a4 533c
00000100: b27b b13b 1b25 cfba 55de 65bb e619 8abc
00000110: 2fc1 d7bb 70d1 ddb6 ff1a 0b3b 0673 2f3b
00000120: 2fa1 9b39 b653 11b9 a761 263d cbae e1bb
00000130: 2f13 21bc 825f a2bb 6628 14bb 8b9f 86ba
00000140: f1b4 bd3b e67c ea3a 3fb0 7ebc d055 b5ba
00000150: 47c0 0cbc c78e 783c 3e28 45bc 9020 7c3b
00000160: 28bf 5dbc d322 69bb 9d09 8fba bf96 00ba
00000170: c6cf 16bc 2121 f4bb 30c8 e039 b200 c3bb
00000180: bf74 c7bb 3525 18bb 9a94 293c b55c 1e3b
00000190: 943b e5bb 7476 883c bb2d c53b 96f4 4f3c
000001a0: 56ca 9ebb b1e2 ebbb 2eb9 4d3c 7777 543c
000001b0: 6270 a93b 7ccd 22bc 7d47 95bc bbfc 0a3c
000001c0: f5b7 7f3b c3ab 78bc a37e 293c 5042 c33b
000001d0: 0d2e eabb 0a7b 49b6 f108 0f3b 7f19 3039
000001e0: df80 283b 123c af39 92f9 863c 9ab7 b93b
000001f0: 5666 7cbb d86a 07bd 47ea bc3c 2509 023c
00000200: df03 64bc 2785 d9bb ad7e e03b b47f ec3b
00000210: f962 efbb 29aa 4c3c 2f66 81bc f1ed ccba
00000220: b509 323a 0acf 693c 15f2 dabb 9f92 2b3c
00000230: a4e6 853b a913 e43b d93d 4bbc 46a1 0dbc
00000240: 9d41 fa3b 42d2 da3b dcad 8abc ba57 283c
00000250: 7805 1aba 8dff 693b ee2e f23b 91ca 20ba
00000260: f57f 59bc fe84 c33b 33fb 87b9 599f bdbb
00000270: c231 3db9 552a 3fbb 378f 563c a587 823c
00000280: 1dbb e53b 1c93 e93c 5a2b 4e3c 3de4 3dbb
00000290: 191d 98bb 7fe4 be3b 6aef 163a 8a3e d9bc
000002a0: 7e9e 003c b8fc 89bc db98 ff3b fbfd 3abc
000002b0: 7a6e 653b 05dc 203c aab2 df3b 50ff 87bc
000002c0: 9a75 fcbc c75a 813c 380c ecbb 712d bf3c
000002d0: c522 a3bb bc69 27bc 2a29 f9ba d110 8eba
000002e0: 14ef 113c 9996 a5bb 4e16 09bb c4a5 183c
000002f0: f70c 9abc 8f63 c23a d916 963a efc1 72bc
00000300: 2c6a 9fbc 597e 8e3b 03c2 0b3c 0ad7 883a
00000310: 71fd a53a 7fad 77ba cbae 9d3b 1ba4 c6bb
00000320: bf88 233c f691 6c3b 82d5 1bbc a5f5 8abb
00000330: 07d5 e63b 7851 743b dd40 bfbb 58d5 6ebc
00000340: e00b 733c 87eb 10bc 3184 703c 2ae1 28bc
00000350: d6cb 1f3b 43ff 1d3c 4b90 aebc a56e 283c
00000360: 5456 8e3c ec10 9139 8924 963b 7e71 b1bb
00000370: 5fe3 353a 02ec 08bb 1b43 59bc a462 063c
00000380: e532 8bbb 51d6 e8bc a979 d1bc 2f27 d4bc
00000390: af98 843b 1886 dcbc d3de 51bc 5063 13bc
000003a0: 4c5d 0e3c c66c 0abb 9f5a b03c 0674 4fbc
000003b0: c1bf bd3b 6f79 00bc 2753 12bc 1493 74bb
000003c0: e301 9bbc 5d0a 62bc b6a8 783a 17a1 57bb
000003d0: 8289 09bb f802 07bc d1ff 8dbb 5fff 30bc
000003e0: 2a21 8cbb c2dc f9bb 2f03 5abb db5d 1f3c
000003f0: d4fa f2bb fda5 d2ba efe4 803b 4283 0f3b
0.00295429 -0.0032271508 0.00028296665 0.011201255 0.012109044 -0.0016173697 0.016486714 0.010416786
-0.0057031885 -0.00022270103 -0.012538284 -0.008746237 3.0490464e-06 -0.014439157 0.0018662858 -0.00010161592
-0.0048389663 -0.013057286 0.008516504 0.0014858693 0.0015372087 0.008642006 0.011543589 -0.0051678796
-0.0052092 0.004294726 0.0093818875 -0.004555232 0.003134143 -0.01070027 -0.006367097 0.0066541545
-0.0037982222 -0.011140113 -0.017114753 0.0053861253 0.008257567 0.0050579337 0.007355661 0.0028599983
0.0055355765 0.012136467 -0.006642817 0.0071433154 -0.0052986597 -0.006325684 -0.01227147 0.0051119695
0.024082735 0.013776319 0.004089599 -0.026455918 0.014267243 0.0029151982 -0.0016505625 -0.010899278
-0.0032995015 0.0058567114 -0.0030689444 -0.00030731218 0.012383179 -0.006243627 0.005810007 0.012917523
0.005416357 -0.0015803905 -0.0035075147 -0.016858052 -0.0065843086 -6.610695e-06 0.0021225808 0.002677144
0.00029683995 -0.00013859462 0.040620472 -0.006887292 -0.009831234 -0.004955233 -0.0022607087 -0.0010270936
0.005789392 0.0017890006 -0.01554495 -0.0013834778 -0.008590764 0.0151707595 -0.01203352 0.0038471557
-0.013534345 -0.0035573735 -0.0010912899 -0.00049052754 -0.0092048105 -0.0074502383 0.0004287376 -0.0059510106
-0.0060869153 -0.0023215536 0.010350371 0.0024164144 -0.0069956277 0.016658045 0.0060174144 0.012692591
-0.0048458977 -0.0071986546 0.012556357 0.012967936 0.005170868 -0.009936687 -0.018222565 0.008483107
0.003901956 -0.01517767 0.010345134 0.005958833 -0.007146603 -3.0022952e-06 0.0021825398 0.00016794166
0.0025711579 0.00033423357 0.016476426 0.005667639 -0.0038513145 -0.03306088 0.02306093 0.007936751
-0.013916939 -0.0066381874 0.0068510384 0.007217372 -0.0073054996 0.012491741 -0.015795795 -0.0015634877
0.00067916076 0.014270553 -0.0066816905 0.010471969 0.0040863324 0.0069603515 -0.012404882 -0.008644408
0.0076372162 0.0066778967 -0.016928606 0.010274822 -0.00058754487 0.0035705299 0.0073908484 -0.00061337004
-0.013275136 0.0059667816 -0.00025936365 -0.005786818 -0.00018042981 -0.002916952 0.0130956685 0.015933821
0.007010831 0.02851253 0.012583578 -0.0028975152 -0.0046421406 0.0058255787 0.00057577214 -0.026519079
0.0078502875 -0.016844139 0.007800204 -0.011413093 0.0035008476 0.009818082 0.0068267183 -0.016601235
-0.030817796 0.015790356 -0.007203605 0.023337098 -0.00497851 -0.01021808 -0.001900946 -0.0010838752
0.008907098 -0.005053353 -0.0020917836 0.009316865 -0.01880501 0.0014830696 0.0011450901 -0.014816745
-0.019459806 0.004348558 0.008530143 0.0010440063 0.0012664032 -0.0009448155 0.0048120967 -0.0060620434
0.009981333 0.0036097742 -0.009511353 -0.004240709 0.007044438 0.0037280004 -0.0058365897 -0.014577232
0.014834374 -0.008845217 0.014679954 -0.01030759 0.002438297 0.009643379 -0.021309039 0.010280286
0.017375149 0.00027669163 0.004581992 -0.0054151407 0.0006938483 -0.0020892625 -0.013260628 0.008202229
-0.0042480105 -0.028422507 -0.025570707 -0.02589759 0.0040465216 -0.02691941 -0.012809473 -0.008995846
0.008689236 -0.0021121963 0.021527587 -0.0126619395 0.005790681 -0.007841452 -0.008930958 -0.003731911
-0.018921798 -0.013796416 0.0009485589 -0.0032902414 -0.0020986502 -0.008240454 -0.004333474 -0.010803073
-0.0042764144 -0.0076251933 -0.0033266058 0.009726967 -0.007415155 -0.0016071197 0.003933541 0.0021898304

network_body._body_endoder.seq_layers.0.bias f4 [128]
00000000: bdca f4bb eaa7 4bbb 4f0f a1bb df10 7ebb
00000010: df95 7aba c5bc 85bb 90cb 2ebc d54d 483c
00000020: 0dc6 183c 9da2 023c 61b3 c8ba f72b 5abb
00000030: 810b 273c 2376 bd3a 7a67 b6bb b130 7a3b
00000040: 3993 02bc 5a0b 933b 4c9c 073b ed20 913a
00000050: e2da a03b 25c6 b83b 008f 0dba 2171 02bc
00000060: dfdc be3b 8574 edbb f46d 323a d045 163c
00000070: 7514 f2ba 5a0c 10bc 2425 043c 1398 79ba
00000080: 0be0 1f3b 40b7 b1b9 8a5a 2cbc 068a 113a
00000090: c136 0dbb f02c 36bb d0b9 b2bb 85c9 1b3a
000000a0: 370a 0fbc c4a3 5cbc 9356 50bc dd22 97bb
000000b0: 272e 0fbc e451 713b 3d28 abba a9d4 883b
000000c0: 22e4 5639 cb68 3b3c 7e58 38bb 0fe9 e43c
000000d0: e783 4fbc 8cd9 82bb cd7b afba 1f26 323b
000000e0: d346 d13b 244d 183c 3e24 4a3c 118f 6fbb
000000f0: edf4 c73b 326c 81bb e342 16bc 4cf2 41ba
00000100: d607 233c 5ae3 fd3b c2ca 053a 2d1a 833c
00000110: bc76 663b dc75 58bb 968c 703b 96bc 2e3b
00000120: 115a 55bb 0886 93bb baf6 ae3a 064d 41ba
00000130: ec30 b73b 13f6 843b dfb0 433c ae83 03bb
00000140: 5a95 713c 9300 8db9 822d 0e3b 6093 3bbc
00000150: dc1b 0cbc 63a4 2d3b a48c b8bb 109a 143c
00000160: f057 0fb9 a7e0 81bb 3513 cf37 1771 483c
00000170: 6bca ecb9 9ac7 ea3a 7ecd c5bb e558 a2bb
00000180: 99c9 8439 2bac 983b 950f dd3c 5b4c d7bb
00000190: bb9f 1cba e0d7 10bc 9893 42bc 47c0 bdba
000001a0: 0e97 d4bb b399 903a 4f8e be3a e93d 09bc
000001b0: e433 e33c cee3 a43b 8ebf 2b3b b451 22ba
000001c0: 75ac a9bb b94f f3bb 3217 2f3c 0108 d53b
000001d0: d871 c6ba 8a9d 053c 0a03 fbba 6554 fb39
000001e0: f0b3 fcbb 0812 183c 2766 a7bb 7c61 503c
000001f0: d913 793b ee30 353c a3d0 54bb 6858 5d3b
-0.0074704573 -0.0031075426 -0.004915155 -0.003876738 -0.00095590757 -0.004081341 -0.01066865 0.012225588
0.009324563 0.00797334 -0.0015312248 -0.0033290365 0.010195614 0.0014454763 -0.0055665346 0.0038175995
-0.007969671 0.004487437 0.0020692525 0.0011072435 0.0049089054 0.005638855 -0.0005400032 -0.007961542
0.0058246697 -0.007246556 0.00068065454 0.009171918 -0.0018469231 -0.008792007 0.008065496 -0.0009521257
0.0024395015 -0.00033896603 -0.010519633 0.0005551878 -0.0021547528 -0.002779778 -0.0054542795 0.00059428095
-0.008730463 -0.013466779 -0.012715953 -0.0046123103 -0.008739031 0.0036822492 -0.0013058257 0.0041757417
0.00020493616 0.011438559 -0.0028128917 0.027943162 -0.012665725 -0.0039932188 -0.0013388336 0.0027183366
0.0063866167 0.0092957355 0.012337742 -0.003655378 0.0061021955 -0.0039496655 -0.0091712205 -0.0007398471
0.009950599 0.0077480497 0.00051037606 0.016003693 0.0035165986 -0.0033029234 0.003670489 0.00266627
-0.0032554904 -0.0045020618 0.0013348677 -0.0007373843 0.0055905487 0.0040576546 0.011944025 -0.00200675
0.014745081 -0.00026894044 0.0021694605 -0.011448711 -0.008551564 0.0026495687 -0.005632 0.0090699345
-0.00013670302 -0.003963548 2.4685267e-05 0.012233994 -0.0004516424 0.0017912269 -0.0060364595 -0.0049544447
0.00025327204 0.004659196 0.02698497 -0.0065703816 -0.00059747294 -0.008840531 -0.011876009 -0.0014476859
-0.0064877337 0.0011032134 0.0014538261 -0.008376577 0.027734704 0.0050320392 0.0026206705 -0.0006191984
-0.005178029 -0.007425275 0.010686683 0.0065011983 -0.0015140129 0.008155236 -0.0019150686 0.0004793733
-0.00771188 0.009281643 -0.005108613 0.012718555 0.0038006215 0.011059029 -0.003247299 0.0033774618

network_body._body_endoder.seq_layers.0.weight f4 [128, 10]
00000000: 030e c53e a6be b63e e6f5 033c 486a 0d3f
00000010: 2748 e93e 19eb bebe 6b81 a83d dac9 213e
00000020: 63de c2be 468d bfbe 2d57 12be b091 3dbe
00000030: 2407 a7bd 9a9b 91be 0fdc 80bb 739a 8fbe
00000040: ef01 783e c5e1 05bc 9423 e7be 51c6 a53e
00000050: 4cf3 be3d 646f 8fbd d3d4 413a 95f7 983e
00000060: ef45 433d b4fe 363e 96d8 193e 3b60 0fbe
00000070: 3984 ed3e 04eb 1fbe 6432 d63e 2bf3 81be
00000080: 4916 b43e 0d78 18be 0e15 8c3e f597 69be
00000090: 0adc f7be 4063 e23e 67ac f43e d0f9 be3d
000000a0: 45a1 5bbe f98f 473e 95c3 a7be d9a4 3cbe
000000b0: a1bf a33e 9e09 1abe 022b 21bf 8925 a4be
000000c0: f5b2 6abe fc5c 193f cb35 4d3e f960 443e
000000d0: d606 cabe 10fc 9bbd 91dc 65bf 2ac7 0bbf
000000e0: 5760 0abf cfb6 943e 9821 88bf aab9 473e
000000f0: 6418 5d3d bbec 603d 2344 813e bb08 943c
00000100: e946 cfbe c5ae d0bc 7313 61be b32b 00bf
00000110: d2c3 32be d6d7 29bf db38 b5bd 41fb a3be
00000120: cfaf a23d 709a babe e316 5a3e 6b20 32bd
00000130: 79cf 88bd 317d 1abe 3326 cbbd 6bdb acbe
00000140: c493 e3be 220e 023f 2fdc 033d 55bf 3c3e
00000150: f620 7ebe 878e 3abe f889 453e 397a 42bd
00000160: ecfb e83d ce2c dc3e 76fc 56be 0a80 383e
00000170: 609d 3bbd bbe8 973d 27fd 69be af38 17bf
00000180: a5b5 773d 517d 10bf 82a6 903e 4cb6 df39
00000190: 8817 1abf ec50 58be 3c24 a8be dcb4 ca3e
000001a0: c3a3 5fbd 1ef3 c83d 2dd4 3bbe 1ad2 99bd
000001b0: 0990 c03e f5aa 2bbf 7f04 37bd f81c 5dbe
000001c0: 891c d1be cd59 aabe a7d5 07bf 88d0 25bf
000001d0: de17 d8be 746c 99be 0a7b f6be 29e3 653e
000001e0: 2fbb 013f 2eca a6be 2951 263e 87f7 43bd
000001f0: f950 6e3c ab69 9fbe 8473 903e 4dce 1ebf
00000200: 0b64 d43e cf0f b0be d4dc 323e 3596 af3d
00000210: 1848 dabd d223 22bc 7625 3d3e d3b8 b63d
00000220: 242c e63e dbe6 aebe 7de9 1f3f cd1c 07be
00000230: 193c b6bd fea4 063f 5551 113e 0887 00bf
00000240: 7507 d3be aeee 2eba c631 c0be 79d3 64be
00000250: af73 c7be f934 21be e976 91bd c4cf 60bf
00000260: b03f 183e 63c8 d03d 2b2b babd 9e4d 8b3b
00000270: 5ecf 1ebe a23c 5bbd 6d9c 8abe c79b dbbd
00000280: 164a 08be b41c 52be 1261 a3be 042f a53e
00000290: c4e8 98be c238 cdbb 4711 acbc 7f7f e9bc
000002a0: cf7d 98be 7b82 ee3e e8a0 1abf 137a 87bd
000002b0: 8bb3 90bc c547 8b3e 1a5d 943e 56d3 0f3f
000002c0: a7db 02bf 5644 0a3f 1bfa a43d a71b b5bd
000002d0: 622a e8be 762a 193e aea5 893d 4c0f 853d
000002e0: 72ea fd3d 4682 a4be 51da d0be cebe 42be
000002f0: ca44 2a3f 6c9f a2be 8c21 e63d 221f 2abd
00000300: a418 4cbe db9b 853e 7757 d63d 71af 793c
00000310: f9f6 67be 83f4 103f 8db2 823e 693a 493e
00000320: 74c1 9b3d 502c 5fbe d111 d93e 8712 ee3d
00000330: 9076 253f 20a3 963d fa97 7c3d 0ddd b0bc
00000340: dfd0 81be f928 6c3f 0253 87be 67fe c33d
00000350: 2fa4 6c3d 3be8 12be 00ab 0fbf e717 603e
00000360: 90a7 06bf ab04 2dbe 32eb b23e 4f8e a23e
00000370: 704d 7a3e b410 3f3f 3cf9 223e e8d4 173e
00000380: b72b 5ebf 0e9e c83e 963c 1ebf ca56 8e3e
00000390: 208f eb3e 2a30 d13d a760 333f 4864 66be
000003a0: 4d55 a03e 92dd 583e 55d0 0abf 4a35 cd3e
000003b0: 936c 6c3e 99cd 91bd 8d4e 473e 22ca 3a3e
000003c0: 710a e7bb bc09 bb3d 3f4d 12bf da78 99bd
000003d0: 141d 573e 532f 263f de55 3b3e 60d6 063e
000003e0: 1095 473e 743f 073f 23ba 163e 5a45 903e
000003f0: eb32 07be 8490 b5bd ae3b 20be 86a7 d5bd
0.38487253 0.35692328 0.008054232 0.552403 0.4556286 -0.3728874 0.082278095 0.15799657
-0.38060293 -0.3741247 -0.14291067 -0.18512607 -0.08155659 -0.28439027 -0.003932483 -0.28047523
0.24219488 -0.008171503 -0.4514433 0.32377866 0.09323749 -0.07003668 0.0007394079 0.2987639
0.047674116 0.17870599 0.15024027 -0.14001553 0.4638994 -0.15616995 0.4183532 -0.25380835
0.35173252 -0.14889546 0.27359813 -0.22811873 -0.48410064 0.44216347 0.47787783 0.09324992
-0.21448238 0.19488515 -0.32766405 -0.1842226 0.3198214 -0.15042731 -0.6295625 -0.32059887
-0.22919829 0.5990751 0.20040052 0.19177617 -0.3945834 -0.076164365 -0.8978968 -0.54600775
-0.5405325 0.29045722 -1.0635252 0.19504419 0.05397834 0.054913264 0.25247297 0.01807057
-0.40483788 -0.025473962 -0.21980076 -0.5006668 -0.17457512 -0.66344965 -0.08848735 -0.3202763
0.07943689 -0.3644595 0.21297793 -0.043487947 -0.06680197 -0.15086819 -0.09919395 -0.33761153
-0.44448674 0.50802815 0.032192405 0.18432362 -0.24817261 -0.18218432 0.19290912 -0.04747984
0.11376175 0.43002933 -0.20994744 0.18017593 -0.04580438 0.07417437 -0.22850476 -0.5907087
0.060475964 -0.5644122 0.28252035 0.00042669696 -0.60192156 -0.21124619 -0.32840145 0.3959111
-0.054599535 0.09811996 -0.18342657 -0.07510777 0.3760989 -0.67057735 -0.044682022 -0.21593082
-0.40842083 -0.33271638 -0.5306038 -0.6477132 -0.4220571 -0.29965556 -0.48140746 0.22449936
0.50676244 -0.32576126 0.16241898 -0.047843482 0.014545673 -0.31135306 0.2821313 -0.6203354
0.41482577 -0.3438706 0.17467052 0.085735716 -0.10658282 -0.009896236 0.18471321 0.08921971
0.44955552 -0.34160504 0.6246565 -0.1319458 -0.088981815 0.5259551 0.14191182 -0.5020604
-0.41216627 -0.0006673139 -0.37537974 -0.22346295 -0.38955447 -0.15742864 -0.071027584 -0.87817025
0.14868045 0.10194471 -0.09090265 0.004251196 -0.15508792 -0.05352462 -0.27072468 -0.107230715
-0.13309512 -0.20518762 -0.31909996 0.32262433 -0.29865086 -0.0062628696 -0.021004332 -0.028503178
-0.29783484 0.46583924 -0.60401773 -0.06615081 -0.017663738 0.27203193 0.2897728 0.5618185
-0.5111641 0.5401052 0.08055516 -0.08843165 -0.45344836 0.14957604 0.06721054 0.06497058
0.123982325 -0.3213064 -0.40791562 -0.19018099 0.66511214 -0.31762254 0.11236867 -0.041533597
-0.19931275 0.2609547 0.10465901 0.015239582 -0.22652806 0.56623095 0.25526848 0.19651188
0.07605258 -0.21794248 0.42396405 0.116246276 0.64634037 0.073553324 0.061668374 -0.02158978
-0.25354668 0.9225002 -0.26430517 0.09570008 0.057773765 -0.14346401 -0.561203 0.21884118
-0.5259943 -0.16896312 0.34945065 0.31749198 0.24443603 0.7463486 0.15915388 0.14827311
-0.86785454 0.39183086 -0.61811197 0.2780059 0.46007633 0.10214265 0.70069355 -0.22499192
0.3131508 0.21178272 -0.5422414 0.4007972 0.23088293 -0.07119293 0.19463558 0.1824117
-0.0070508053 0.09132716 -0.5714912 -0.07493754 0.21007186 0.6491596 0.18294474 0.13167715
0.19490457 0.52831197 0.14719443 0.2817791 -0.13203017 -0.08865455 -0.15647766 -0.10432343

network_body._body_endoder.seq_layers.2.bias f4 [128]
00000000: a987 29bc 2348 3fbc f080 4d39 3beb 1b39
00000010: 5779 a2bb b314 33b8 d03d 4ebb 52ea 03bc
00000020: 41ce 90ba 22b5 1a3b 24dd 443a 6d8c 2a3c
00000030: ba5f bcba 9982 543c b7c2 d93b 43d2 d7ba
00000040: a9dc 353c f37a 883b ad01 b3bb 5239 203c
00000050: 5120 99bb e904 07bc 3bb1 31bb 8311 ab39
00000060: a810 06bc eec2 a23b 559c bfba e4b0 5d3a
00000070: 715d b5bb 84f1 6e3b a9c1 5a3b dc27 453c
00000080: c587 043c 76f4 b13b 69bf 173c 3d96 b2bb
00000090: 6c46 d8bb 670e 50ba dba7 a3bb 8ce4 093c
000000a0: d9d5 15bb 0662 343c 613e 703b 3794 41bc
000000b0: f388 863a f335 ac39 2624 f33b f908 56bb
000000c0: d3a2 a6b9 5fcf a2ba 691d 97bb 7c58 343c
000000d0: a229 b0ba 328f 2ebc 08cd 90bb 59e0 883a
000000e0: 3886 543b 3358 5dbc 76ca 25bb 4471 e63a
000000f0: fd7c e13b b883 a13b 859b 16bc 056d 2ebc
00000100: 7f4a aabb da51 24bb 8532 5e3b 11dc 383b
00000110: 7c22 a33b 7c4d 12bc 716a 2a3a d308 44bb
00000120: 7e89 b93b e1d3 7cba 2726 053c 7fef 163b
00000130: cfa7 c93b 54be 8b3b 90da 32bc 0121 e0bb
00000140: e23b 343b ce06 c9bb 2e9c 923b c648 37bc
00000150: e046 c03b ddde 8eb9 8857 04bc 3677 763c
00000160: 7b77 123c dbe1 d93a 1140 18bb 6f02 88bc
00000170: ec82 473a 43ca 6f3b d96e 27bc 615c 0fba
00000180: 84f2 913b 8db6 d93c 16e7 473a d9a0 043c
00000190: 8ac8 fa3b cc17 c73c b81d a2bb dc4a 9f3b
000001a0: 56a6 d33b 89ea 0bbb 0289 053c 0f26 eebb
000001b0: 78a7 c939 9e98 a73b 6f29 a3b9 ec25 3bbc
000001c0: fc61 b7bb be4a 013b dc1b 98bb 3bc2 a9bb
000001d0: 6267 243b 3346 08bb b357 35bb 6ff3 fabb
000001e0: 6071 3cbc de36 01bc e44f a73c 5c66 b33b
000001f0: 997c c5bb 0ab7 0b3c 524f dabb 921c 263b
-0.010347285 -0.011674914 0.00019598356 0.00014869582 -0.0049583125 -4.2696203e-05 -0.0031469949 -0.008051472
-0.0011047797 0.0023606499 0.0007509759 0.010409457 -0.001437179 0.01297059 0.0066455263 -0.0016465861
0.011099973 0.0041650473 -0.0054628463 0.009779291 -0.004673042 -0.008240917 -0.0027113694 0.0003262871
-0.008182682 0.004967085 -0.0014618734 0.000845684 -0.0055348207 0.0036459872 0.003337959 0.012033429
0.008089011 0.0054307533 0.009261944 -0.0054500387 -0.006600192 -0.00079367164 -0.004994375 0.008416306
-0.002286306 0.011009699 0.0036658274 -0.011815122 0.0010264203 0.00032846592 0.0074200807 -0.0032659157
-0.000317833 -0.001242142 -0.0046116603 0.011007424 -0.0013440142 -0.010654258 -0.004418973 0.0010442837
0.0032428633 -0.013509798 -0.0025297678 0.0017581363 0.006881355 0.004929032 -0.009192352 -0.0106461095
-0.005196869 -0.0025073201 0.0033904624 0.0028207342 0.004978476 -0.0089296065 0.00065008464 -0.0029912486
0.0056621423 -0.00096446095 0.008126772 0.0023030934 0.0061540375 0.0042646322 -0.010916367 -0.006839872
0.0027501513 -0.0061348444 0.0044741845 -0.011186784 0.005867824 -0.00027250397 -0.00807751 0.015043071
0.008939619 0.0016623096 -0.0023231546 -0.016602723 0.00076107564 0.0036589063 -0.010219299 -0.00054687826
0.004453959 0.026576305 0.0007625682 0.00809499 0.0076533007 0.02430334 -0.0049473904 0.004861219
0.006459038 -0.002134951 0.008150341 -0.0072677205 0.00038462481 0.005114629 -0.00031120653 -0.0114226155
-0.0055963974 0.0019728388 -0.004641993 -0.005180625 0.0025086035 -0.0020793795 -0.002767068 -0.007658414
-0.01150164 -0.0078866165 0.020423837 0.0054748487 -0.006026816 0.008527527 -0.0066622877 0.002534662

network_body._body_endoder.seq_layers.2.weight f4 [128, 128]
00000000: 3466 9cbc 0d31 4abe fa1c 8cbd c8ea f8bd
00000010: 5c2d d3bd 5204 31bd 8ccf e83d 1dac 72bc
00000020: 527c 38be b5c8 8fbd 8034 70bd 51ad 413c
00000030: acc8 19bd 76a2 033e ecaa 68bc 2f43 1ebe
00000040: c3aa 7c3e 8e4c 73be 52a5 d6bd b06e 19be
00000050: 19c1 993b 490f a0bc 79f1 153d 5742 f93d
00000060: c0fa 10bd 36ed 123d 7dcc 23be 6125 cf3c
00000070: 92f3 803d 82ea 323c 5d29 a63c db01 27be
00000080: c904 b93b 0471 8dbd 99d1 eb3d 65b6 82bb
00000090: be82 68bb ba3a 69bd be86 853c 8179 293d
000000a0: 0af5 c73c ef93 043e 38e5 87bd cc14 ab3d
000000b0: ad85 763d 8044 65bd 1a2c 073d db98 4b3d
000000c0: 8a1e 16bd d027 5ebe 3892 efbd ceb1 d2bc
000000d0: fdb2 4fbd aec9 a7bc f36a e6bd eacb 76bd
000000e0: bb68 d0bc 1a5c 54be 3196 043d d25a 563c
000000f0: 1812 b2bd 5b69 383e 027b 753d a310 d9bc
00000100: 44ba 34bd a9d7 0d3c dca5 9bbd 27e1 273d
00000110: c21d 57bd 2139 003e dd27 3abc 27f0 f8bc
00000120: 0e1a e4ba a2b4 bbbb 32f7 14be 5cec cc3d
00000130: 6d43 c03d 2c04 263e b1ac cd3d 98bf 2c3d
00000140: 1b44 443d c506 0abe ba69 b33d 967d 5fbc
00000150: 3898 83bd 702e 24bd 18b7 17bd 409d ff3d
00000160: d71c b5bb 5388 843d 90c3 273d 52b8 bbbc
00000170: c71d 15bd ebfd d3bd 5426 043d 14c1 cabc
00000180: 0fea db3d d9cb be3b e236 de3d b48b 343e
00000190: 668b c8bd 3769 2b3e ddd0 7abd dbe6 67bd
000001a0: 090e ea3c c270 c13c 7d8b 203d 4af3 a8bb
000001b0: a3ea b9bb 8b1e dc3d 14d3 893c 87e1 103d
000001c0: f051 3abe c323 033e 56b5 1bbd 30ae a1bd
000001d0: 748e 03bd 8099 0cbe b8de 25bd 8ba1 ddbc
000001e0: fcb4 a5bd 8dbd 023e 2d82 51be 1625 91bd
000001f0: 46a1 123d 225d c13d 1a3b 573c 4929 803d
00000200: 5a84 02be 0ca5 853e 8994 2fbe 3ddf 953c
00000210: e97e 4fbd 7e67 c93d 5494 61bd 3dfd 21be
00000220: 07a1 21bd 4b36 b53d 47b2 afbb f209 883d
00000230: 1548 d9bd 7f52 003d ad0f 2cbe 7d06 debc
00000240: f77e a03d 8bb7 c83c fe5c 01be fda1 363d
00000250: a1f4 0b3e fa15 1a3d 5dba e6bd 01b3 01bd
00000260: 34a2 05bd 11c9 3d3d c9a3 c93d dff4 33bd
00000270: 61c1 173e 3967 6b3e ed56 dc3d 4b38 a93c
00000280: 3765 f5bb 8229 9ebd dc45 ca3c 8e0d ebbd
00000290: a1ef 25be 5251 133d 954e b9bc 1365 683d
000002a0: cb59 92bd 419a 133e 7054 59bd 6fb2 dd3c
000002b0: 9064 f1bc ce65 b8bd b4cf 9a3d 66ef f03d
000002c0: f167 5bbd b91c 6e3d 158b 01be 5599 8bbd
000002d0: dcbc 363d 6585 ad3d f538 6ebd 2379 cf3c
000002e0: a0c2 4a3c 2504 b0bd 1e1e 113e 00dc d3bd
000002f0: c657 f1bd 5dc9 8e3b 08d4 b23d 8adf 6dbd
00000300: 01e6 f73c c5ab 9bbc da3b 053e 7e06 713d
00000310: 29e0 90bd d32b c0bd 2540 37bd 099f 2abe
00000320: 2412 cd3a 4b07 61bd b0b7 b3bd a888 f3bd
00000330: 0028 ce3d f44b 953d 6ea2 fb3d 9930 803c
00000340: 61de 6d3e 75f6 2ebd a34f 9fbd d3f5 d23d
00000350: 8230 3b3c 99f2 bd3d 896b 1f3e 8fd9 803d
00000360: 21db be3d a366 c23d b467 b63c 46b7 1bbe
00000370: b398 ae3d 21dd 54bd 0686 503d 3c1b 1b3d
00000380: a040 cc3b 8e91 2fbc 8ddd ba3d c958 d83d
00000390: 69d2 53be 868f e7bd 5a53 09be 78b1 87bd
000003a0: 788a 9f3c 26eb ffbc 5fdd cd3b f86c 0cbe
000003b0: 55d1 5c3d f9a0 2bbd a83a 213d a219 d23c
000003c0: 728c a73d 13c6 dfbb 217d 113e 8c4e 743d
000003d0: 97c8 913c 0055 ad3d e812 11bc 25ac 673d
000003e0: e30c cf3c 6196 b43d 8eb9 fcbd a202 afbc
000003f0: 9bdd 78bd a91c 68bd a718 c13c a9c0 b0bd
-0.019091703 -0.19745274 -0.06841464 -0.12154156 -0.10311386 -0.04321701 0.113677114 -0.014811543
-0.18016174 -0.07020704 -0.058643818 0.011821107 -0.03754489 0.12854943 -0.014200907 -0.15455316
0.24674515 -0.23759672 -0.10480751 -0.1498363 0.0046922085 -0.019538539 0.03660724 0.121708564
-0.035395384 0.035870753 -0.15995975 0.025286378 0.06296457 0.010920169 0.020283395 -0.16309302
0.0056463224 -0.06906322 0.11514587 -0.0039890283 -0.003547832 -0.05694077 0.016299602 0.04137564
0.024408836 0.12947057 -0.06635517 0.08353576 0.060186077 -0.05597353 0.033001043 0.04970632
-0.036650218 -0.21694875 -0.11697811 -0.02571955 -0.050707806 -0.02048191 -0.11250868 -0.06025306
-0.025440564 -0.20738259 0.032369796 0.013083177 -0.08694857 0.1800894 0.059931763 -0.02649719
-0.04412295 0.008657374 -0.075999945 0.040986206 -0.052518614 0.12521793 -0.011362043 -0.030387951
-0.0017402784 -0.00572832 -0.14547423 0.100060195 0.093878604 0.16212529 0.10042704 0.042174906
0.047916513 -0.13479145 0.087604 -0.013640782 -0.06425518 -0.04008335 -0.037039846 0.12481165
-0.0055271196 0.06471314 0.040957987 -0.02291504 -0.03640535 -0.103511654 0.032263115 -0.02475027
0.107380025 0.0058226404 0.10850312 0.17631418 -0.09792213 0.16739355 -0.061234344 -0.056616645
0.028571146 0.023613337 0.039195526 -0.0051559554 -0.005673723 0.10748013 0.016824283 0.03537133
-0.18195319 0.12806611 -0.038014732 -0.07894552 -0.032118276 -0.1373043 -0.040495604 -0.027054569
-0.08091161 0.1276762 -0.20459814 -0.07087152 0.035798334 0.09441592 0.0131366495 0.062578745
-0.127458 0.26102483 -0.17146505 0.018294925 -0.05065814 0.09834193 -0.055073097 -0.15819259
-0.03946021 0.08848246 -0.0053618285 0.06642522 -0.10609452 0.031328674 -0.16802855 -0.027102703
0.078367166 0.024501583 -0.1263313 0.044588078 0.13667537 0.037618615 -0.11266015 -0.031664852
-0.032625392 0.04633433 0.09845693 -0.0439347 0.14819862 0.22988595 0.10758767 0.020656725
-0.0074888724 -0.07722761 0.024691515 -0.11477195 -0.16204692 0.035966225 -0.022620479 0.056737017
-0.07146033 0.14414312 -0.05305904 0.027062623 -0.029466897 -0.09003793 0.075591475 0.11764412
-0.053565923 0.05813286 -0.12650712 -0.06816355 0.044613704 0.084727086 -0.058159787 0.025326317
0.012375504 -0.085945405 0.14171645 -0.10344696 -0.117843196 0.0043575005 0.08731848 -0.05807451
0.030261042 -0.019002805 0.13011113 0.058844082 -0.07074005 -0.09383359 -0.044738907 -0.1666223
0.0015645665 -0.054938596 -0.0877527 -0.118912995 0.10066223 0.072898775 0.122868404 0.015648173
0.23229362 -0.04271551 -0.077788614 0.103007935 0.011425139 0.092747875 0.15568365 0.06291496
0.09319139 0.09492233 0.022266246 -0.15206632 0.08525219 -0.051968697 0.050909065 0.03786777
0.00623329 -0.010715855 0.09124289 0.105638094 -0.20685734 -0.11306672 -0.13410702 -0.06625646
0.019475207 -0.031240057 0.006282493 -0.13713443 0.053910572 -0.041901562 0.03936258 0.025646988
0.08181085 -0.006829032 0.14207889 0.05964522 0.017795844 0.08463478 -0.008854605 0.056560654
0.0252747 0.08817745 -0.12340079 -0.02136356 -0.060758214 -0.056667957 0.023571325 -0.08630497
