ML-Agents/Examples/FoodCollector/results/ppo/GridFoodCollector.onnx (onnx, 340728 bytes, 15 tensors)

action_model._continuous_distribution.log_sigma f4 [1, 3]
0	0x00000000	0.0
1	0x00000000	0.0
2	0x00000000	0.0

action_model._continuous_distribution.mu.bias f4 [3]
0	0x00000000	0.0
1	0x00000000	0.0
2	0x00000000	0.0

action_model._continuous_distribution.mu.weight f4 [3, 128]
0	0xbbad0bb8	-0.005280938
1	0xbb2130c3	-0.0024595715
2	0xbc8357a9	-0.01603301
3	0x3cb614bd	0.022226686
4	0x3c67d7aa	0.014150539
5	0xba734512	-0.00092800066
6	0x3bc00f7a	0.00586122
7	0x3c603fe8	0.013687111
8	0x3c8185ae	0.015810814
9	0xbbf771af	-0.007551394
10	0x3c836bbb	0.01604258
11	0x3cbd1b20	0.023084223
12	0x3c199624	0.009374175
13	0xbbcf8050	-0.0063324347
14	0xbbf2459b	-0.0073935515
15	0x3b055afd	0.0020348423
16	0x3c04723b	0.008083875
17	0xbb74a0d2	-0.0037327302
18	0x39874812	0.00025802903
19	0x3ce8b350	0.028405815
20	0xbcde7aeb	-0.027158221
21	0xbc92c9f7	-0.01791857
22	0xbb429191	-0.0029688815
23	0x3c4ac3bb	0.012375767
24	0x3b82ffdf	0.0039977874
25	0x3d0e89c9	0.03479937
26	0xbac3c95a	-0.0014937327
27	0x3c9550d0	0.018227011
28	0xbc31746d	-0.010830981
29	0xbcee2d5a	-0.02907436
30	0x3cacfa88	0.021115556
31	0x3c2dad27	0.010600365
32	0x3ca37f93	0.019958293
33	0xbc30dd5f	-0.0107949665
34	0xbba306eb	-0.00497519
35	0xba9b89f9	-0.001186668
36	0x3cff9540	0.031199098
37	0xbd17d59b	-0.037068944
38	0xbbf23105	-0.0073910975
39	0xbba01f8b	-0.0048865727
40	0xbc48d8ff	-0.012258767
41	0xbcb34714	-0.021884479
42	0x3cf5ebda	0.03001969
43	0x3d050b9c	0.032481775
44	0x3cbdecef	0.023184268
45	0x3cbe9bbb	0.023267617
46	0x3c6aa697	0.014321945
47	0xbcc6bc86	-0.024259817
48	0x3d05b9c3	0.03264786
49	0xbcfb17dd	-0.030651027
50	0xbcb160ed	-0.021652663
51	0x3c7fc970	0.015611991
52	0x3b951a93	0.004550287
53	0x3afbe872	0.0019219054
54	0x3bfbcce5	0.0076843374
55	0x3b569ecb	0.0032748457
56	0x3c2e5d73	0.010642397
57	0x3bae5a43	0.0053208186
58	0x3bb2cb1c	0.0054563414
59	0x3cebb9a2	0.02877504
60	0x3baeb76e	0.005331925
61	0x3c1c941e	0.009556798
62	0xbc98516a	-0.018593509
63	0x39acc197	0.00032950632
64	0x3c804b63	0.015660947
65	0xbc3e2781	-0.011606098
66	0xb9a3ce92	-0.0003124369
67	0xbcb1b256	-0.021691483
68	0x3b30cf09	0.0026978871
69	0xbb9711c0	-0.0046102703
70	0x3cde7160	0.02715367
71	0xbce7220f	-0.028214483
72	0x3c38e5da	0.01128527
73	0xbb06bc3d	-0.0020558976
74	0x3bf5e6c2	0.007504315
75	0xbc5f2f3d	-0.013622102
76	0x3c23a9ef	0.009989246
77	0x3c0ac71c	0.008470323
78	0xbc9d26d5	-0.019183556
79	0x3b9874c6	0.0046525924
80	0x3ab8f0ae	0.0014109814
81	0xbcb02a52	-0.021504555
82	0xbc97a0e1	-0.01850933
83	0xbbc213d3	-0.0059227734
84	0xba59aac0	-0.0008303337
85	0x3cce270d	0.025165105
86	0xbb109307	-0.0022060291
87	0x3aee51f5	0.0018182384
88	0x3be9d8ca	0.007136439
89	0x3ccea610	0.02522567
90	0xbc9efe1b	-0.019408276
91	0xbcf9ef18	-0.030509517
92	0x3c88659c	0.016650014
93	0x3c397037	0.011318258
94	0xbba76f26	-0.0051096855
95	0xbb14dd45	-0.0022714895
96	0x3c61800b	0.013763438
97	0xbc47f631	-0.012204693
98	0xbc5bd2c8	-0.013416953
99	0xbccc7559	-0.0249583
100	0x3bddcba7	0.006768662
101	0xbbcc814a	-0.0062409984
102	0x3b183a8a	0.0023228251
103	0xbc9b3a73	-0.01894877
104	0x3c86423f	0.01638901
105	0x3be76bc8	0.007062409
106	0xbccbcb2b	-0.024877151
107	0xbc1dc98f	-0.009630575
108	0xbd0de753	-0.034644436
109	0x3bcb363b	0.006201533
110	0x3c8571fa	0.0162897
111	0x3c610770	0.013734683
112	0x3c3b0070	0.0114136785
113	0xbc6a19b5	-0.014288356
114	0xbc0f81bb	-0.0087589575
115	0x3c0f29b2	0.008737968
116	0x3bf89052	0.0075855637
117	0xbd2336b6	-0.0398471
118	0xbcfc132d	-0.030770862
119	0xbcc16097	-0.023605628
120	0xbc9dde6a	-0.019271094
121	0xbc564150	-0.013077095
122	0xbd1d17c5	-0.038352747
123	0x3b733c8b	0.0037114944
124	0x3bed8662	0.0072486857
125	0xbbd9f883	-0.0066519394
126	0xbc4dbb78	-0.012556903
127	0xba263051	-0.0006339597
128	0xbb99d785	-0.0046948814
129	0x3b04bc07	0.0020253675
130	0x3b7b804b	0.003837603
131	0x3ccae0bf	0.02476537
132	0xbd1af4c3	-0.03783108
133	0xbcada423	-0.02119643
134	0x3a916a3e	0.0011094285
135	0xbc66e6eb	-0.014093141
136	0xbca4421e	-0.020051058
137	0x3cff3565	0.03115339
138	0x3ba1307b	0.0049191094
139	0xbc05e89d	-0.008173135
140	0xbc1d9661	-0.009618373
141	0xbb0c0915	-0.0021367718
142	0x3c130e8d	0.008975637
143	0xbc42d4d1	-0.01189156
144	0xb9909c10	-0.00027582096
145	0xbc06ff05	-0.008239512
146	0xbc86c601	-0.016451837
147	0x3cbfbf4d	0.023406649
148	0x3b35a49d	0.0027716525
149	0xbc57d253	-0.013172704
150	0x3bd3cf57	0.006463926
151	0x3b769d10	0.0037630238
152	0x3bf95cff	0.007609963
153	0x3c4780bf	0.012176692
154	0xbc0935e3	-0.008374664
155	0x3bc6f1d1	0.006071307
156	0x3c1f8c77	0.009738079
157	0x3c1ad0f7	0.009449235
158	0xbbd33f7f	-0.0064467783
159	0x3bd87c8f	0.0066066454
160	0x3c6729df	0.014109104
161	0xbc531258	-0.012882791
162	0xbc5687d5	-0.013093908
163	0x3befd978	0.0073196255
164	0xbcfda0ad	-0.030960405
165	0xbbd415e0	-0.0064723343
166	0xbc07739e	-0.008267311
167	0x3bb602c3	0.0055545284
168	0xbcbf1bcc	-0.023328684
169	0x3d113e33	0.03545971
170	0xbbddc4e0	-0.006767854
171	0x3cc107df	0.023563324
172	0xbc8dbff7	-0.01730345
173	0xbbf77db8	-0.0075528286
174	0xbc9b4bc1	-0.01895702
175	0xbc2979e3	-0.010344001
176	0x3ca4d5df	0.020121513
177	0xbacfa85d	-0.0015843023
178	0xbc76175d	-0.015020219
179	0xbc59f643	-0.013303342
180	0xbc35d208	-0.011097439
181	0xbc1c1e49	-0.009528705
182	0xbbaffa26	-0.005370396
183	0x3cacafbb	0.021079889
184	0xbcb1656f	-0.021654813
185	0x3cb21a10	0.021740943
186	0x3c69cd6a	0.014270166
187	0xbc36537e	-0.0111283045
188	0x3c9ad45b	0.018900087
189	0x3a4f1973	0.00079002156
190	0xbc63501a	-0.013874078
191	0xbc57074f	-0.013124301
192	0xbcf22ec7	-0.02956332
193	0x3c32eb2f	0.01092033
194	0x3bb6f0ba	0.005582896
195	0x3d1242cc	0.035708234
196	0xbc85abed	-0.016317332
197	0xbcb7224d	-0.022355223
198	0xbbe86783	-0.0070924177
199	0x3c671547	0.014104194
200	0x3c18384f	0.009290769
201	0x3c47ec04	0.012202267
202	0x3c31bc03	0.010848048
203	0xbb52427a	-0.003208308
204	0xbc4849b9	-0.012224608
205	0x3ac7485d	0.0015204061
206	0xbb9001fa	-0.004394767
207	0x3b4403b7	0.002990944
208	0x3c887003	0.016654974
209	0xbbcc0837	-0.006226565
210	0x3c0f7172	0.008755075
211	0x3c0d25a1	0.008614928
212	0x3b975b7a	0.004619059
213	0x3a9d2037	0.001198775
214	0x3c90b3eb	0.017663917
215	0xbc877e0b	-0.016539594
216	0xba8e4032	-0.0010852872
217	0x3a3c520b	0.0007183856
218	0x3ac2d134	0.0014863373
219	0xbc748fe2	-0.014926882
220	0x3c391367	0.01129613
221	0xbbe30beb	-0.006928911
222	0x3c9bfe00	0.019042015
223	0x3c6d09bb	0.014467652
224	0xbb21423b	-0.0024606127
225	0x3c0f80a3	0.008758697
226	0xbc8e53db	-0.01737397
227	0x3ca87b6e	0.020566668
228	0xbcff8485	-0.03119112
229	0x3c398fc8	0.011325784
230	0xbbff2122	-0.007785932
231	0xbc72a3cd	-0.014809561
232	0xbca50621	-0.020144524
233	0x3c1be0a3	0.009514007
234	0xbc39d54f	-0.011342361
235	0xbbe6d32f	-0.007044218
236	0x3d2b3c26	0.04180541
237	0xbc986dbe	-0.018607017
238	0xbcb4b55f	-0.02205914
239	0x3bfb8db8	0.0076768063
240	0xbb2c174e	-0.0026259008
241	0xbc891ff6	-0.016738873
242	0xbcf5e82b	-0.030017933
243	0x3cdbb593	0.02681998
244	0x3c627d7f	0.013823866
245	0x3b14a0bf	0.002267882
246	0x3c981b4b	0.018567702
247	0xbca526eb	-0.02016016
248	0xbd17bdf1	-0.037046377
249	0xbc36fef5	-0.011169185
250	0xbc55b8d3	-0.013044554
251	0xbbdd7e93	-0.0067594736
252	0x3bdd2030	0.006748222
253	0x3c3dfbf7	0.011595718
254	0xbbed324a	-0.007238661
255	0x3cac1d72	0.021010134

action_model._discrete_distribution.branches.0.bias f4 [2]
0	0x00000000	0.0
1	0x00000000	0.0

action_model._discrete_distribution.branches.0.weight f4 [2, 128]
0	0x3ba274ab	0.0049577556
1	0xbb59fe1b	-0.003326303
2	0x3be627b8	0.007023778
3	0x3c2a8856	0.010408482
4	0x3a6e4202	0.00090888154
5	0x3c12c7dd	0.008958784
6	0xbc3ad081	-0.01140225
7	0xb9bf38bd	-0.00036472632
8	0xbc5d4035	-0.013504078
9	0x3b9021f3	0.0043985783
10	0x3b481b4c	0.0030533848
11	0x3b137b37	0.0022503862
12	0xbc3a0a5c	-0.011355009
13	0xbb9ed46d	-0.0048471005
14	0xbc005f04	-0.0078351535
15	0xbaa02489	-0.001221792
16	0xbba8d695	-0.0051525333
17	0xbb9f6a4b	-0.004864966
18	0xbbf7d43d	-0.0075631426
19	0xbb076913	-0.0020661994
20	0x3aa73f63	0.001275998
21	0xbb20da91	-0.0024544338
22	0xbbff01a5	-0.0077821785
23	0xbbc1e215	-0.0059168437
24	0xbb9cdb6f	-0.0047869007
25	0xbc2b8472	-0.010468589
26	0x3bd76bf8	0.00657415
27	0xba593f45	-0.0008287321
28	0x3b8adcfb	0.0042377687
29	0xbb18232c	-0.0023214323
30	0xbb7f1f3a	-0.0038928525
31	0x3c9ab187	0.01888348
32	0xbb29cba0	-0.0025908723
33	0x3b8e2bb3	0.0043387054
34	0x3c83c272	0.01608393
35	0x3aa96ce9	0.0012926135
36	0xbc5a59f5	-0.0133271115
37	0xbbf05f88	-0.007335607
38	0xbaa7d38b	-0.0012804134
39	0x3bf5cf53	0.0075015216
40	0xbc87f973	-0.016598439
41	0x3be5103a	0.0069904597
42	0xbba7b852	-0.0051184082
43	0x3bc3c7be	0.005974739
44	0xbb561b90	-0.0032670237
45	0x3b509daa	0.0031832256
46	0xbc0ad2af	-0.008473082
47	0x3b99427b	0.0046771145
48	0xbccb24b3	-0.024797773
49	0xba69a8f5	-0.0008913421
50	0x3bffe7c2	0.00780961
51	0x3b79ca7f	0.0038115082
52	0xbb423655	-0.0029634435
53	0xbbafe2ef	-0.0053676288
54	0xbba3c7b8	-0.0049981736
55	0x3bd8b66b	0.006613543
56	0x3be670db	0.0070324964
57	0x3b1fbc3d	0.0024373673
58	0x3b09c5c9	0.002102243
59	0x3bb6b87e	0.0055761924
60	0x3ba36c9b	0.004987312
61	0x3bc8ccd4	0.006127933
62	0xbc0c3a2c	-0.008558791
63	0xbaaaaf13	-0.0013022147
64	0xba52aa67	-0.0008036256
65	0xbb5c1baf	-0.0033585837
66	0x3b0834d8	0.002078345
67	0x3c25050a	0.010072002
68	0xbb3a4a4d	-0.0028425634
69	0x3c56e3f0	0.013115868
70	0x3c2e0a5b	0.010622586
71	0xbb1d1032	-0.0023965952
72	0xbbda4d3a	-0.006662038
73	0xbc8e5fc9	-0.017379658
74	0xbc200a3f	-0.009768068
75	0x3bc053f3	0.0058693825
76	0xba844110	-0.0010090191
77	0x3ba19eb2	0.004932248
78	0x3bf48ca0	0.007463053
79	0xbc11adf8	-0.008891575
80	0xbc291d72	-0.010321962
81	0xbbc54e87	-0.006021324
82	0x3c2d8da5	0.010592853
83	0x3bb8d30f	0.0056403945
84	0x3c17a3f7	0.009255401
85	0xbcae9081	-0.02130914
86	0xbb519973	-0.0031982332
87	0xbc16ad48	-0.009196587
88	0x39db8f1b	0.00041877557
89	0x3c8a43b6	0.01687799
90	0x3b69c76a	0.0035671839
91	0x3c66a7bb	0.014078076
92	0xbbc6bdf0	-0.006065123
93	0x3beffbc3	0.0073237135
94	0xbc1288a0	-0.008943707
95	0x3b760d63	0.00375446
96	0xbc100c2a	-0.008791963
97	0xbbc15b32	-0.005900764
98	0xbb896b04	-0.0041936655
99	0x3c4d8f9f	0.012546449
100	0x3c6cf1e3	0.014461967
101	0x3ba9bfd0	0.0051803365
102	0xbc935a28	-0.017987326
103	0x3b5fe44b	0.0034163173
104	0xba70d2b3	-0.000918667
105	0x3c80ac69	0.015707212
106	0xbbb4402d	-0.0055008144
107	0xbb05d833	-0.0020423054
108	0x3c379f7e	0.0112074595
109	0x3958c633	0.000206732
110	0xbb775fc7	-0.0037746297
111	0xbadcd882	-0.0016849192
112	0x3bc0b513	0.0058809607
113	0xbbb1bd56	-0.005424182
114	0xba1f7e77	-0.00060842134
115	0xbc2c23ad	-0.010506553
116	0x3b7f1440	0.0038921982
117	0xbab06493	-0.0013457708
118	0xbb2d06c3	-0.0026401735
119	0xb73e810c	-1.1354929e-05
120	0xbc65de12	-0.0140299965
121	0x3ab09eb7	0.0013475035
122	0xbbeab2db	-0.0071624345
123	0xba646ef7	-0.0008714045
124	0xbbd9d5bf	-0.006647795
125	0x3c04624a	0.008080075
126	0x3c20ad40	0.009806931
127	0xbc2e251f	-0.010628968
128	0xbb96b863	-0.0045996173
129	0xbbabb90b	-0.0052405647
130	0xbbd54fe3	-0.0065097674
131	0xbb984e08	-0.004647974
132	0x3a79064f	0.0009499536
133	0xbc12aa53	-0.008951741
134	0x3c9b3e29	0.018950539
135	0x39bb1fbf	0.00035691072
136	0xbc8c48b1	-0.017124506
137	0x3b0f0b7d	0.0021826916
138	0x3c50727f	0.0127226105
139	0xbc7dac8a	-0.015483031
140	0x3b2f275b	0.0026726339
141	0xbc6e73b7	-0.014553956
142	0x3bb39ed3	0.00548158
143	0x3c32010b	0.0108645065
144	0xbca89195	-0.020577231
145	0x3c47e5cb	0.012200783
146	0x3c1450f1	0.009052501
147	0xbbb96130	-0.0056573376
148	0x3bfc9f72	0.007709437
149	0xba8a2123	-0.001053844
150	0xbbd046ef	-0.006356112
151	0xbba816c7	-0.0051296684
152	0x3b2b5175	0.0026141081
153	0xbc181cbe	-0.009284196
154	0xbc201440	-0.009770453
155	0x3c06d257	0.00822886
156	0x3ae9f503	0.0017849508
157	0xbac9c2ff	-0.0015393196
158	0x3bdb670b	0.0066956333
159	0x3b17e99b	0.0023180011
160	0xbc838fb5	-0.016059736
161	0x3b9b8666	0.004746246
162	0x3c126fdd	0.008937803
163	0xbbecc423	-0.0072255298
164	0x3c770cf5	0.015078773
165	0x3b85c48d	0.0040822686
166	0x3a13b7ae	0.00056349754
167	0xbc0507d9	-0.008119547
168	0xbc2c82bc	-0.010529216
169	0xbc103961	-0.008802743
170	0x3bf52fca	0.0074825035
171	0x3c67b190	0.014141455
172	0xbc2223b4	-0.009896208
173	0xbb7f3303	-0.0038940317
174	0xbc492356	-0.012276491
175	0xba2e0093	-0.0006637659
176	0xbc690ff2	-0.014224993
177	0x3b589fd0	0.003305424
178	0xbc74fbdf	-0.014952629
179	0xbba2872a	-0.0049599605
180	0xbc847cd0	-0.016172796
181	0xbb90b8f0	-0.0044165775
182	0x3aa5e3e1	0.0012656414
183	0xbb664030	-0.0035133474
184	0xbc8dd7e5	-0.01731486
185	0x3c085309	0.008320578
186	0x3b744a9b	0.0037275914
187	0x3992fbfd	0.00028035036
188	0xb9ca4f89	-0.000385877
189	0x3c85c139	0.016327487
190	0x3c50558f	0.012715711
191	0xbbf3c92a	-0.007439752
192	0xbaaf51d8	-0.0013375832
193	0xba963f75	-0.0011463003
194	0xbb238d92	-0.0024956209
195	0x3c6790d0	0.014133647
196	0x394626bf	0.00018897186
197	0xbc012943	-0.007883373
198	0xbb03e749	-0.002012687
199	0x3b250467	0.0025179626
200	0x3c3853ef	0.01125048
201	0xbbe9ec13	-0.007138738
202	0x3bdc33ea	0.006720056
203	0xbaa5d855	-0.0012652973
204	0x3bef7ab0	0.0073083267
205	0x3b76b907	0.0037646906
206	0x3c596cea	0.013270596
207	0xbbaf4c44	-0.0053496677
208	0x3c049472	0.008092033
209	0xb9bcb384	-0.00035991904
210	0xbb250d26	-0.002518484
211	0x3add6e33	0.0016893804
212	0xbc3751ed	-0.011188966
213	0xbb09b6ea	-0.0021013566
214	0x3c08358d	0.008313549
215	0xbc5da98b	-0.013529192
216	0x3c1f20bf	0.009712397
217	0xbbee4987	-0.0072719487
218	0x3b8460cf	0.004039861
219	0x3bc1e537	0.005917217
220	0x3a878db5	0.0010341915
221	0xbbd732a0	-0.0065673143
222	0x3c3967f0	0.011316285
223	0xbb707a1a	-0.0036693872
224	0x3c5d9c78	0.013526075
225	0xba9b539b	-0.0011850478
226	0x3bbeeb55	0.0058263936
227	0xbc504fcf	-0.01271434
228	0x3c37d47a	0.011220092
229	0x3ae7905b	0.0017666923
230	0xbbdcd53a	-0.006739286
231	0xbbc2712a	-0.0059339004
232	0xb8cadec8	-9.673607e-05
233	0xbade98d5	-0.0016982803
234	0x3cabbe63	0.020964807
235	0x3c8d2977	0.017231686
236	0x39e1ce90	0.00043069245
237	0x3c32a3bf	0.010903298
238	0xbc1ded0c	-0.009639036
239	0x3b6f0b0b	0.0036475088
240	0x3a2e9bad	0.0006660771
241	0xbc978a3b	-0.01849853
242	0x3c04d9fb	0.008108611
243	0x3bb6d78f	0.005579896
244	0x3c3a69bb	0.011377747
245	0x3ca253c3	0.019815331
246	0x3c07d933	0.00829153
247	0xbb0f18b8	-0.0021834802
248	0xbc86577f	-0.016399143
249	0xbc20ffa4	-0.0098265745
250	0x3c006f50	0.007839039
251	0x3bf33047	0.0074215266
252	0x3c894ddd	0.01676076
253	0x3c585380	0.013203502
254	0xbb3f17a3	-0.0029158376
255	0xbc4210cd	-0.011844826

network_body._body_endoder.seq_layers.0.bias f4 [128]
0	0x00000000	0.0
1	0x00000000	0.0
2	0x00000000	0.0
3	0x00000000	0.0
4	0x00000000	0.0
5	0x00000000	0.0
6	0x00000000	0.0
7	0x00000000	0.0
8	0x00000000	0.0
9	0x00000000	0.0
10	0x00000000	0.0
11	0x00000000	0.0
12	0x00000000	0.0
13	0x00000000	0.0
14	0x00000000	0.0
15	0x00000000	0.0
16	0x00000000	0.0
17	0x00000000	0.0
18	0x00000000	0.0
19	0x00000000	0.0
20	0x00000000	0.0
21	0x00000000	0.0
22	0x00000000	0.0
23	0x00000000	0.0
24	0x00000000	0.0
25	0x00000000	0.0
26	0x00000000	0.0
27	0x00000000	0.0
28	0x00000000	0.0
29	0x00000000	0.0
30	0x00000000	0.0
31	0x00000000	0.0
32	0x00000000	0.0
33	0x00000000	0.0
34	0x00000000	0.0
35	0x00000000	0.0
36	0x00000000	0.0
37	0x00000000	0.0
38	0x00000000	0.0
39	0x00000000	0.0
40	0x00000000	0.0
41	0x00000000	0.0
42	0x00000000	0.0
43	0x00000000	0.0
44	0x00000000	0.0
45	0x00000000	0.0
46	0x00000000	0.0
47	0x00000000	0.0
48	0x00000000	0.0
49	0x00000000	0.0
50	0x00000000	0.0
51	0x00000000	0.0
52	0x00000000	0.0
53	0x00000000	0.0
54	0x00000000	0.0
55	0x00000000	0.0
56	0x00000000	0.0
57	0x00000000	0.0
58	0x00000000	0.0
59	0x00000000	0.0
60	0x00000000	0.0
61	0x00000000	0.0
62	0x00000000	0.0
63	0x00000000	0.0
64	0x00000000	0.0
65	0x00000000	0.0
66	0x00000000	0.0
67	0x00000000	0.0
68	0x00000000	0.0
69	0x00000000	0.0
70	0x00000000	0.0
71	0x00000000	0.0
72	0x00000000	0.0
73	0x00000000	0.0
74	0x00000000	0.0
75	0x00000000	0.0
76	0x00000000	0.0
77	0x00000000	0.0
78	0x00000000	0.0
79	0x00000000	0.0
80	0x00000000	0.0
81	0x00000000	0.0
82	0x00000000	0.0
83	0x00000000	0.0
84	0x00000000	0.0
85	0x00000000	0.0
86	0x00000000	0.0
87	0x00000000	0.0
88	0x00000000	0.0
89	0x00000000	0.0
90	0x00000000	0.0
91	0x00000000	0.0
92	0x00000000	0.0
93	0x00000000	0.0
94	0x00000000	0.0
95	0x00000000	0.0
96	0x00000000	0.0
97	0x00000000	0.0
98	0x00000000	0.0
99	0x00000000	0.0
100	0x00000000	0.0
101	0x00000000	0.0
102	0x00000000	0.0
103	0x00000000	0.0
104	0x00000000	0.0
105	0x00000000	0.0
106	0x00000000	0.0
107	0x00000000	0.0
108	0x00000000	0.0
109	0x00000000	0.0
110	0x00000000	0.0
111	0x00000000	0.0
112	0x00000000	0.0
113	0x00000000	0.0
114	0x00000000	0.0
115	0x00000000	0.0
116	0x00000000	0.0
117	0x00000000	0.0
118	0x00000000	0.0
119	0x00000000	0.0
120	0x00000000	0.0
121	0x00000000	0.0
122	0x00000000	0.0
123	0x00000000	0.0
124	0x00000000	0.0
125	0x00000000	0.0
126	0x00000000	0.0
127	0x00000000	0.0

network_body._body_endoder.seq_layers.0.weight f4 [128, 128]
0	0x3d3030f0	0.04301542
1	0x3e7dd35f	0.24787663
2	0xbe2a7630	-0.16646647
3	0xbb1fdf94	-0.0024394738
4	0xbe1e485f	-0.15457295
5	0x3c281649	0.010259219
6	0xbd9df3f0	-0.07712543
7	0xbd8b4849	-0.06800897
8	0x3c4bd8bc	0.01244181
9	0xbe4dd96a	-0.20102468
10	0xbe17a47a	-0.14808837
11	0x3dd182ce	0.10230027
12	0x3c24b961	0.010053963
13	0x3dd8fd8d	0.10595236
14	0xbd9ebc9a	-0.07750817
15	0xbc2dfda6	-0.0106195565
16	0x3e02c288	0.1276952
17	0x3cffa666	0.031207275
18	0xbe14abfc	-0.14518732
19	0xbb4a367f	-0.0030855236
20	0xbd989bb4	-0.07451573
21	0xbdc56fb6	-0.09640448
22	0xbdadec03	-0.08492281
23	0x3e40ac2d	0.1881568
24	0xbc38dfa1	-0.011283786
25	0xbd83d73d	-0.06437538
26	0x3dc3c398	0.09558791
27	0xbe0c9da1	-0.13732006
28	0xbd9d82e0	-0.07690978
29	0xbd17a7a5	-0.037025113
30	0x3e2c89f4	0.168495
31	0x391a43d6	0.00014711855
32	0xbd7beace	-0.061503224
33	0xbe09c718	-0.13454854
34	0x3d97c714	0.07411018
35	0x3db2a289	0.08722407
36	0x3c48635d	0.012230721
37	0xbd6776ec	-0.056509897
38	0xbd9a5545	-0.07535795
39	0x3c6c6c67	0.014430142
40	0xbe08fd96	-0.13377985
41	0x3dbe5e38	0.092953146
42	0x3d001eae	0.03127926
43	0xbcca4c2b	-0.024694523
44	0xbdbaf9a7	-0.09129649
45	0xbe692c59	-0.22770824
46	0xbca5ae98	-0.020224854
47	0xbc7ffe4f	-0.015624597
48	0xbd386a04	-0.04502298
49	0xbdd22149	-0.10260255
50	0xbe3a4106	-0.18188867
51	0xbe2bf7ab	-0.16793697
52	0x3dda1d2c	0.10650095
53	0xbd09bbac	-0.033626243
54	0x3e0370ab	0.12835948
55	0x3e09487b	0.13406555
56	0xbb88bfc3	-0.0041732504
57	0x3d790f7e	0.06080579
58	0xbdac50d4	-0.08413854
59	0xbd060f9b	-0.032729726
60	0xbdd36290	-0.10321534
61	0xbc1f6558	-0.009728752
62	0x3bf3b653	0.007437506
63	0x3e544aa0	0.20731592
64	0x3d8b2839	0.06794781
65	0xbe12d162	-0.14337686
66	0xbd2cc8b8	-0.042183608
67	0x3e136ead	0.14397688
68	0x3c03369a	0.0080086235
69	0xbdc25759	-0.094893165
70	0x3bd64860	0.0065393895
71	0x3d788986	0.060678028
72	0xbe2c23c0	-0.16810513
73	0xbddc3d97	-0.10753935
74	0xbe233b50	-0.15940595
75	0xbc561871	-0.013067351
76	0xbc833885	-0.016018162
77	0xbd16ca76	-0.036814176
78	0x3db6b51c	0.089212626
79	0x3cdbcf0c	0.026832126
80	0x3c6182ac	0.013764065
81	0x3d420c8b	0.047375243
82	0xbe3d5fee	-0.18493626
83	0x3d08eca0	0.03342879
84	0xbc745de1	-0.014914961
85	0x3e1824a4	0.14857727
86	0x3de50913	0.111833714
87	0x3df95167	0.121737294
88	0xbe45273e	-0.19253251
89	0x3da3acb5	0.079919256
90	0x3cb68503	0.022280222
91	0x3c35f3b5	0.011105468
92	0x3e713c23	0.23558097
93	0xbd46e8ab	-0.048561733
94	0x3d3f0aeb	0.04664127
95	0x3cde26bb	0.027118078
96	0xbda6f666	-0.081524655
97	0xbc991b0d	-0.018689657
98	0xbd34e756	-0.04416593
99	0x3d33c217	0.04388627
100	0x3d2818f4	0.041039422
101	0xbcbebb3c	-0.02328264
102	0xbcf22859	-0.029560255
103	0x3dbdd3bb	0.092689
104	0x3dac547f	0.08414554
105	0x3c1c3e66	0.009536361
106	0x3d2937f8	0.04131314
107	0x3df217bd	0.11820934
108	0xbe20d555	-0.1570638
109	0xbd1128a2	-0.03543914
110	0xbe4248d4	-0.18973094
111	0x3d208abd	0.03919481
112	0x3d85b960	0.06529498
113	0x3d2d92d8	0.04237637
114	0xbd87804d	-0.06616268
115	0x3da8eefb	0.08248707
116	0xbd9e1bb5	-0.077201284
117	0xbdd6b5b8	-0.10483879
118	0x3dec9887	0.1155253
119	0xbdc63164	-0.09677389
120	0xbde8290f	-0.11335956
121	0x3c904696	0.017611783
122	0x3d9ad753	0.07560601
123	0xbdc8e9ae	-0.09810196
124	0x3df8711b	0.12130948
125	0x3dd2e608	0.10297781
126	0x3c652746	0.013986414
127	0x3e126161	0.1429496
128	0xbdca64de	-0.0988252
129	0xbdae5a06	-0.08513264
130	0xbcccdf5d	-0.025008852
131	0xbd193077	-0.037399735
132	0x3da20d89	0.07912738
133	0x3cd5e41f	0.026109753
134	0xbd42561e	-0.04744541
135	0x3c66ee6a	0.014094928
136	0xbd576f40	-0.05259633
137	0x3d05bd61	0.03265131
138	0xbd5b11ba	-0.053483702
139	0xbc4baf19	-0.012431883
140	0xbd458e48	-0.048231393
141	0x3d4f6207	0.050630596
142	0x3e08dbaf	0.13365053
143	0x3daa6b13	0.08321204
144	0xbd317c9c	-0.043331727
145	0xba600d34	-0.00085468893
146	0x3dbb6f9e	0.09152149
147	0x3cf35d9d	0.029707724
148	0x3ca5cf38	0.020240411
149	0x3de36ecd	0.11105118
150	0x3d90cd9c	0.07070467
151	0xbdb69f81	-0.08917142
152	0xbdb5375c	-0.088484496
153	0xbdaad0ab	-0.083405815
154	0x3d2618a2	0.040550835
155	0x3dca284d	0.09870968
156	0xbce938e0	-0.028469503
157	0x3bfcae64	0.0077112187
158	0x3d3f2a0f	0.04667097
159	0x3d8d4784	0.06898406
160	0xbbd684b9	-0.0065465835
161	0x3db24073	0.08703699
162	0xbda9afaf	-0.08285462
163	0xbd710578	-0.058843106
164	0xbd216798	-0.039405435
165	0x3b7ec1b2	0.0038872776
166	0xbe39905c	-0.18121475
167	0xbbf08bc6	-0.007340881
168	0x3c9049e6	0.017613363
169	0xbdac4245	-0.084110774
170	0xbd5ee757	-0.05441984
171	0xbd0e7913	-0.034783434
172	0x3d1ad484	0.037800327
173	0x3d16365f	0.036672946
174	0x3dcce81e	0.1000521
175	0x3daa4272	0.08313455
176	0xbe094cea	-0.13408247
177	0xbddbeb7a	-0.10738273
178	0x3e353b29	0.17698349
179	0xbd47d1d1	-0.04878408
180	0x3dd5b1d8	0.10434312
181	0x3d40d23c	0.047075495
182	0x3b855151	0.0040685316
183	0xbd5a659f	-0.05331957
184	0x3e0b1508	0.13582242
185	0xbd231784	-0.039817348
186	0x3c91c56c	0.017794333
187	0x3d1ba1e4	0.037996188
188	0x3d4cc94a	0.04999665
189	0xbd254131	-0.040345374
190	0xbe029d96	-0.12755427
191	0x3d32d18c	0.04365687
192	0x3a66a168	0.0008797855
193	0xbd9ae7d0	-0.07563746
194	0xbd87276f	-0.06599318
195	0xbe1214be	-0.14265725
196	0x3cc79104	0.024361141
197	0x3d5ba828	0.053627163
198	0x3cc5b25f	0.024132906
199	0x3e1ab731	0.15108944
200	0xbda1e764	-0.079054624
201	0x3d95833f	0.07300424
202	0x3d08e457	0.033420887
203	0xbd948878	-0.07252592
204	0x3ddd56f2	0.10807599
205	0x3d39826e	0.045290403
206	0xbe0c3813	-0.13693266
207	0x3dfc62ce	0.12323533
208	0xbe0d5279	-0.13800992
209	0x3d0e500f	0.03474432
210	0xbc9c733b	-0.019097915
211	0x3d1df360	0.03856218
212	0x3d86e982	0.06587507
213	0x3d86098b	0.06544789
214	0xbdcab664	-0.098980695
215	0xbe597117	-0.21234547
216	0x3d9adc34	0.07561532
217	0xbda8b867	-0.08238297
218	0xbe2ae139	-0.16687478
219	0x3d6e79d2	0.058221646
220	0xbd38ed84	-0.045148388
221	0x3d046b9d	0.03232919
222	0x3d99f442	0.075172916
223	0xbdf1764f	-0.11790144
224	0xbca58929	-0.020207005
225	0xbd29393f	-0.04131436
226	0x3e18911e	0.14899108
227	0x3dc4e9e2	0.09614922
228	0xbda68235	-0.08130304
229	0xbe348bd8	-0.17631471
230	0x3c452a94	0.012034077
231	0x3cdd521e	0.027016696
232	0x3d662999	0.056192014
233	0xbd360a4c	-0.044443414
234	0xba1506bf	-0.0005684904
235	0xbcced37a	-0.025247324
236	0x3cb2304f	0.021751551
237	0x3e70be89	0.23510183
238	0x3d45f14a	0.048325814
239	0x3c0112c5	0.00787801
240	0x3da57824	0.08079556
241	0xbdd267e4	-0.10273722
242	0xbe12c5a5	-0.14333208
243	0x3bf2dd45	0.0074116313
244	0x3d79232f	0.06082457
245	0x3ae89cb7	0.00177469
246	0xbe0bae02	-0.13640597
247	0xbe23f800	-0.16012573
248	0xbe02673d	-0.12734695
249	0xbdb58e4f	-0.08865034
250	0xbd23889a	-0.039925195
251	0x3d16459b	0.036687475
252	0x3ddbb87d	0.10728548
253	0xbd8c90b9	-0.06863541
254	0xbdced601	-0.10099412
255	0xbd6af1dc	-0.05735956

network_body._body_endoder.seq_layers.2.bias f4 [128]
0	0x00000000	0.0
1	0x00000000	0.0
2	0x00000000	0.0
3	0x00000000	0.0
4	0x00000000	0.0
5	0x00000000	0.0
6	0x00000000	0.0
7	0x00000000	0.0
8	0x00000000	0.0
9	0x00000000	0.0
10	0x00000000	0.0
11	0x00000000	0.0
12	0x00000000	0.0
13	0x00000000	0.0
14	0x00000000	0.0
15	0x00000000	0.0
16	0x00000000	0.0
17	0x00000000	0.0
18	0x00000000	0.0
19	0x00000000	0.0
20	0x00000000	0.0
21	0x00000000	0.0
22	0x00000000	0.0
23	0x00000000	0.0
24	0x00000000	0.0
25	0x00000000	0.0
26	0x00000000	0.0
27	0x00000000	0.0
28	0x00000000	0.0
29	0x00000000	0.0
30	0x00000000	0.0
31	0x00000000	0.0
32	0x00000000	0.0
33	0x00000000	0.0
34	0x00000000	0.0
35	0x00000000	0.0
36	0x00000000	0.0
37	0x00000000	0.0
38	0x00000000	0.0
39	0x00000000	0.0
40	0x00000000	0.0
41	0x00000000	0.0
42	0x00000000	0.0
43	0x00000000	0.0
44	0x00000000	0.0
45	0x00000000	0.0
46	0x00000000	0.0
47	0x00000000	0.0
48	0x00000000	0.0
49	0x00000000	0.0
50	0x00000000	0.0
51	0x00000000	0.0
52	0x00000000	0.0
53	0x00000000	0.0
54	0x00000000	0.0
55	0x00000000	0.0
56	0x00000000	0.0
57	0x00000000	0.0
58	0x00000000	0.0
59	0x00000000	0.0
60	0x00000000	0.0
61	0x00000000	0.0
62	0x00000000	0.0
63	0x00000000	0.0
64	0x00000000	0.0
65	0x00000000	0.0
66	0x00000000	0.0
67	0x00000000	0.0
68	0x00000000	0.0
69	0x00000000	0.0
70	0x00000000	0.0
71	0x00000000	0.0
72	0x00000000	0.0
73	0x00000000	0.0
74	0x00000000	0.0
75	0x00000000	0.0
76	0x00000000	0.0
77	0x00000000	0.0
78	0x00000000	0.0
79	0x00000000	0.0
80	0x00000000	0.0
81	0x00000000	0.0
82	0x00000000	0.0
83	0x00000000	0.0
84	0x00000000	0.0
85	0x00000000	0.0
86	0x00000000	0.0
87	0x00000000	0.0
88	0x00000000	0.0
89	0x00000000	0.0
90	0x00000000	0.0
91	0x00000000	0.0
92	0x00000000	0.0
93	0x00000000	0.0
94	0x00000000	0.0
95	0x00000000	0.0
96	0x00000000	0.0
97	0x00000000	0.0
98	0x00000000	0.0
99	0x00000000	0.0
100	0x00000000	0.0
101	0x00000000	0.0
102	0x00000000	0.0
103	0x00000000	0.0
104	0x00000000	0.0
105	0x00000000	0.0
106	0x00000000	0.0
107	0x00000000	0.0
108	0x00000000	0.0
109	0x00000000	0.0
110	0x00000000	0.0
111	0x00000000	0.0
112	0x00000000	0.0
113	0x00000000	0.0
114	0x00000000	0.0
115	0x00000000	0.0
116	0x00000000	0.0
117	0x00000000	0.0
118	0x00000000	0.0
119	0x00000000	0.0
120	0x00000000	0.0
121	0x00000000	0.0
122	0x00000000	0.0
123	0x00000000	0.0
124	0x00000000	0.0
125	0x00000000	0.0
126	0x00000000	0.0
127	0x00000000	0.0

network_body._body_endoder.seq_layers.2.weight f4 [128, 128]
0	0x3cd274a6	0.025690388
1	0x3d177118	0.03697309
2	0xbd186239	-0.037203047
3	0x3e3c9da0	0.18419504
4	0x3c97836b	0.018495282
5	0xbd8f52e1	-0.0699823
6	0x3d8d06b1	0.06886042
7	0x3c4436ad	0.011975926
8	0x3bbbe0d7	0.00573359
9	0xbd2e06e1	-0.04248703
10	0xb912ae74	-0.00013988634
11	0x3de96260	0.11395717
12	0x3d9f94b1	0.077920325
13	0xbd4371b7	-0.04771587
14	0xbe18e6a8	-0.14931738
15	0x3d27f9ae	0.041009597
16	0xbdf61a97	-0.1201679
17	0xbc24dd4a	-0.010062525
18	0xbd4f309f	-0.050583478
19	0xbd7b490f	-0.06134897
20	0xbc05c829	-0.008165398
21	0xbdba8660	-0.09107661
22	0xbd1b702d	-0.037948776
23	0xbe21862c	-0.15773839
24	0xbd12f2e9	-0.03587619
25	0xbd04a46e	-0.032383375
26	0x3b8185ae	0.0039527034
27	0x3c9e2560	0.019304931
28	0xbd2f68de	-0.04282462
29	0xbcb7430e	-0.022370841
30	0x3df6be0c	0.12047967
31	0xbe0222c5	-0.12708576
32	0x3d90c157	0.07068127
33	0xbd2a6a11	-0.04160506
34	0x3d6b160d	0.057394076
35	0x3df068de	0.11738752
36	0x3dc90b75	0.098166384
37	0xbdbac15d	-0.09118912
38	0xbe075023	-0.13214163
39	0x3da78384	0.081793815
40	0x3ce14d73	0.027502751
41	0x3ca317ec	0.019908868
42	0xbd51ad22	-0.051190503
43	0xbde38013	-0.111084126
44	0xbad45593	-0.001619982
45	0xbcb91cc1	-0.022596719
46	0xbcdc072b	-0.026858887
47	0x3d7fb72c	0.062430546
48	0x3d91dc77	0.071221285
49	0x3ba362f3	0.004986161
50	0x3cf15cf3	0.029463267
51	0xbdd9ed63	-0.10640981
52	0x3d73a68e	0.05948501
53	0xbdbf058b	-0.09327229
54	0x3c0e7123	0.008693966
55	0x3e2e08e4	0.16995579
56	0x3c7ce1d3	0.0154347
57	0x3d8db7c8	0.06919819
58	0xbe30572a	-0.1722075
59	0xbdc6599d	-0.09685061
60	0x3db1d2ad	0.08682761
61	0x3d4dab0b	0.050211947
62	0x3df1ab08	0.118002
63	0x3d95d85c	0.07316658
64	0x3ce06058	0.02738969
65	0xbc686168	-0.01418338
66	0xbcc348f2	-0.023838494
67	0x3d745d00	0.059659004
68	0x3dfe44d0	0.12415469
69	0x3c03d67a	0.008046741
70	0x3d1689c0	0.036752462
71	0x3d5a06a2	0.05322898
72	0x3ce790ea	0.028267343
73	0x3e255c80	0.16148567
74	0x3e35d508	0.17757046
75	0xbce68587	-0.028139843
76	0xbd816c96	-0.06319539
77	0x3d60897c	0.054818615
78	0x3d040a77	0.032236543
79	0x3d968329	0.073492356
80	0xbc7b2443	-0.01532847
81	0x3c937833	0.018001651
82	0xbd9e3ef8	-0.07726854
83	0x3d924bd4	0.07143369
84	0xbc3494f7	-0.011021844
85	0xbdd2cd95	-0.10293118
86	0x3db51267	0.088414006
87	0x3e021573	0.12703495
88	0x3e37ed5e	0.17961642
89	0xbd124c51	-0.035717312
90	0x3a6f8660	0.000913715
91	0x3e03aa4f	0.12857936
92	0x3d2d2206	0.042268775
93	0xbe2ecdf3	-0.17070751
94	0x3e831eed	0.25609532
95	0x3cfc3e47	0.030791415
96	0xbdec5990	-0.1154052
97	0xbd6ecdfd	-0.058301914
98	0xbd01d3d5	-0.03169616
99	0x3d9590c0	0.073029995
100	0x3c042180	0.008064628
101	0xbc934130	-0.01797542
102	0xb9e7a593	-0.00044183116
103	0xbc3e09ad	-0.011598987
104	0xbde5e0e5	-0.11224536
105	0xbdbc4ba2	-0.09194113
106	0x39d01152	0.00039685756
107	0x3cdacbde	0.02670854
108	0x3e1767eb	0.14785735
109	0xbd19fd98	-0.03759536
110	0x3e33d5ee	0.17562076
111	0x3c93d282	0.018044714
112	0x3d69296b	0.056924265
113	0xbcbbffa2	-0.022949044
114	0x3c847818	0.016170546
115	0xbddec7d1	-0.10877956
116	0x3c91ea20	0.017811835
117	0xbb8b171a	-0.0042446973
118	0xbcef1058	-0.029182598
119	0xbd004853	-0.031318974
120	0xbdc99660	-0.09843135
121	0xbc7f7a65	-0.015593146
122	0x3c66f8dd	0.01409742
123	0xbd4b93eb	-0.049701612
124	0xbc37e431	-0.011223839
125	0x3e10bd86	0.14134797
126	0xbcda0398	-0.026613042
127	0x3dba5ef1	0.0910014
128	0xbb3f6925	-0.0029206958
129	0xbd313a33	-0.043268394
130	0xbe3755df	-0.17903851
131	0xbb9171ac	-0.0044385996
132	0xbd00b910	-0.03142649
133	0xbd6376bc	-0.055533156
134	0x3dee2e34	0.11629906
135	0x3dcd1697	0.10014074
136	0x3d123419	0.035694215
137	0x3d2e25d7	0.042516556
138	0xbc9ec794	-0.019382276
139	0x3ce84942	0.028355245
140	0x3d297b74	0.0413775
141	0xbe109d17	-0.14122425
142	0xbe6048d5	-0.21902783
143	0x3d5ee651	0.054418866
144	0xbdc5c9ac	-0.096576065
145	0x3d27d0cf	0.04097062
146	0xbd00dc2e	-0.03145998
147	0xbd3b9df3	-0.04580493
148	0xbdf60518	-0.1201269
149	0x3d2b111a	0.041764356
150	0x3db448fe	0.08802985
151	0x3dfad224	0.122471124
152	0x3bae7fb8	0.005325284
153	0x3da8aa0b	0.08235558
154	0x3c9e9443	0.019357806
155	0x3cef1e6f	0.029189317
156	0x3d7a07c3	0.06104256
157	0xbc654ea8	-0.013995804
158	0x3d2fc06b	0.042908113
159	0x3db5aae3	0.08870485
160	0x3d732d8e	0.059369616
161	0xbd39daa2	-0.04537452
162	0x3dc667fa	0.09687801
163	0x3ccf4097	0.025299354
164	0x3df1b44d	0.11801968
165	0x3cf81f40	0.030288339
166	0xbd02a4c3	-0.03189541
167	0x3cbb2d77	0.022848828
168	0xbe378cbf	-0.17924784
169	0xbdfde519	-0.123972125
170	0x3dc83222	0.09775187
171	0x3caea1c0	0.021317363
172	0x3b85aa10	0.004079111
173	0x3db027a5	0.086013116
174	0xbd6b68bd	-0.057472933
175	0xbd3ef82f	-0.046623405
176	0x3d0af926	0.033929013
177	0x3d24ba74	0.040216878
178	0xbd06fd33	-0.032956313
179	0x3de8a365	0.1135929
180	0xbccd44c4	-0.025057204
181	0x3cedd42b	0.029031834
182	0xbaa71405	-0.0012747055
183	0xbcec9393	-0.028878963
184	0xbe2a54ec	-0.16633958
185	0x3de385a5	0.11109475
186	0xbd28f4c8	-0.041249067
187	0x3d39deac	0.045378372
188	0xbd3c79cc	-0.046014592
189	0x3d0a9766	0.03383579
190	0x3df9c4b6	0.12195723
191	0x3e073627	0.13204251
192	0xbd7d41ae	-0.061830215
193	0x3bf1882c	0.0073709693
194	0xbdb27bc9	-0.087150164
195	0x3d2c0eab	0.042006176
196	0xbe31f559	-0.17378749
197	0x3d449a5b	0.047998767
198	0xbc9ff165	-0.019524286
199	0xbd96851a	-0.07349606
200	0xbdedc47b	-0.11609741
201	0x3d272d89	0.04081491
202	0x3d02bc22	0.0319177
203	0x3e036f83	0.12835507
204	0x3d3f71d3	0.04673941
205	0xbcc0f6f7	-0.023555262
206	0xbd00370c	-0.031302497
207	0x3d06fefd	0.03295802
208	0x3d9c82c1	0.07642127
209	0x3e027f01	0.1274376
210	0x3d318245	0.043337125
211	0xbdb68c1f	-0.08913445
212	0x3d037774	0.03209634
213	0xbca9337b	-0.02065443
214	0xbc31611d	-0.010826376
215	0x3e3dea8c	0.18546504
216	0xbd0bcc01	-0.0341301
217	0x3c285451	0.010274009
218	0xbe14cbba	-0.1453084
219	0x3dfd9581	0.12382031
220	0xba001292	-0.00048855797
221	0x3d68504b	0.0567172
222	0x3db86348	0.090033114
223	0x3d2454f5	0.040120084
224	0x3cd5fd20	0.026121676
225	0x3e11065d	0.14162584
226	0x3d6e2447	0.058140066
227	0xbda074de	-0.07834791
228	0xbdd8acc4	-0.105798274
229	0xbd4351ee	-0.047685556
230	0x3da78fb1	0.08181704
231	0x3cd16309	0.025559919
232	0x3d65b94c	0.056084916
233	0xbdfb5e49	-0.12273843
234	0xbd11bf6d	-0.03558295
235	0x3db6bdea	0.08922942
236	0xbd0fbae6	-0.03509035
237	0x3e27c46f	0.16383527
238	0x3d959674	0.07304087
239	0x3c1a23a5	0.009407912
240	0xbe105bb1	-0.14097477
241	0xbe00d58c	-0.12581462
242	0xbdc295fa	-0.09501262
243	0x3c09f864	0.008421037
244	0xbe0bacff	-0.13640212
245	0xbd04631d	-0.032321084
246	0x3d71c4a8	0.059025437
247	0xbcac1d64	-0.021010108
248	0x3e1cf42f	0.15327524
249	0xbe09d3c1	-0.13459684
250	0xbc8bc656	-0.017062347
251	0x3d97197f	0.0737791
252	0xbd9749cf	-0.07387125
253	0x3e2b854b	0.16750066
254	0xbe1168e8	-0.14200175
255	0x3e32c05d	0.17456193

network_body.observation_encoder.processors.0.conv_layers.0.bias f4 [16]
0	0xbcec4d67	-0.028845502
1	0xbb43ca22	-0.002987512
2	0x3d10e94c	0.03537874
3	0x3d006b86	0.031352542
4	0x3b2a14b7	0.0025952288
5	0xbd55424f	-0.05206519
6	0x3a28212d	0.0006413635
7	0xbc9c0adc	-0.019048147
8	0xbd0bae80	-0.034101963
9	0xbd1c48a1	-0.0381552
10	0xbcc6f82b	-0.024288258
11	0xbd33daf3	-0.043909978
12	0xbd3d860d	-0.04627042
13	0x3c28b6b7	0.010297469
14	0xbcd59b49	-0.026075022
15	0x3a49d69c	0.0007699521

network_body.observation_encoder.processors.0.conv_layers.0.weight f4 [16, 5, 8, 8]
0	0xbd5b27c1	-0.05350471
1	0xbd512f27	-0.05107036
2	0xbc99578e	-0.018718507
3	0xbd31ada7	-0.0433785
4	0x3d344bc1	0.044017557
5	0x3d473c43	0.048641454
6	0xbd1a9cf7	-0.03774735
7	0x3d59d0b7	0.05317756
8	0x3ce14e2c	0.027503096
9	0xbd18eaeb	-0.03733341
10	0x3cd014b3	0.025400495
11	0xbd34dae3	-0.04415406
12	0x3d081157	0.03321966
13	0x3d1bad03	0.038006794
14	0xbbed966b	-0.0072505972
15	0x3d44b98c	0.048028514
16	0xbc06bf3f	-0.008224308
17	0xba18198c	-0.00058021466
18	0x3c731732	0.014837073
19	0xbc7b86f9	-0.015352004
20	0xbc7ee501	-0.0155575285
21	0x3cd9a189	0.026566284
22	0xbb3cd71e	-0.0028814743
23	0xbc21560c	-0.009847175
24	0x3d14b97e	0.03630971
25	0xbd054e4b	-0.03254537
26	0xbd035b55	-0.032069523
27	0xbd21df2c	-0.039519474
28	0xbd11d38f	-0.03560215
29	0xbd3d4552	-0.046208687
30	0x3c2ae480	0.010430455
31	0x3d2cf5a4	0.04222645
32	0xbbd02fd0	-0.006353356
33	0xbd387c60	-0.04504049
34	0x3d4efb9f	0.050532933
35	0x3d587522	0.05284608
36	0x3cc7febf	0.024413465
37	0xbbcc36b6	-0.006232108
38	0x3cf8733c	0.030328386
39	0x3c8db369	0.017297463
40	0xbd447efb	-0.04797266
41	0x3c0fd38b	0.008778463
42	0xbcc0f0b5	-0.023552278
43	0x3d56caa1	0.052439336
44	0x3cf53fcd	0.02993765
45	0xbd35adb9	-0.044355128
46	0xbcb0df1c	-0.021590762
47	0xbd186594	-0.037206247
48	0xb9bb89b8	-0.00035770028
49	0x3c064b2e	0.008196635
50	0xbc37d3de	-0.011219947
51	0x3d5cd89e	0.05391752
52	0xbb8b175f	-0.0042447294
53	0xbd1e3ebd	-0.03863405
54	0xbc7b6f6d	-0.01534639
55	0x3d358d07	0.044323947
56	0xbafbab9a	-0.0019200922
57	0xbd18f67b	-0.037344437
58	0xbd0911e8	-0.033464342
59	0x3ce215fe	0.027598377
60	0xbc6b12b2	-0.014347719
61	0xbc8c9846	-0.017162453
62	0xbce4a2f0	-0.027909726
63	0xbd1d1895	-0.03835352
64	0xbb1fd844	-0.002439038
65	0x3adcb7a6	0.00168394
66	0xbd3b15db	-0.04567514
67	0xbd5c49f7	-0.053781476
68	0x3d4da5a4	0.050206795
69	0xbd37cf2f	-0.04487532
70	0xbceee1fb	-0.02916049
71	0x3bfc9c6d	0.007709077
72	0x3d5090cd	0.050919343
73	0xbb22d8ce	-0.0024848464
74	0x3d598f9c	0.053115472
75	0x3c94a0b2	0.018143032
76	0x3d54c331	0.05194396
77	0xbd350469	-0.04419366
78	0xbc941f04	-0.018081196
79	0xbd3559e8	-0.044275194
80	0xbcecd9dd	-0.028912479
81	0x3d10d335	0.035357673
82	0xbb965782	-0.0045880685
83	0xbcee7c04	-0.02911187
84	0x3cc611f9	0.024178492
85	0xbd433ce4	-0.04766549
86	0x3c5ab137	0.013347915
87	0xbc369e65	-0.011146163
88	0x3cd4fec1	0.026000382
89	0xbd2ff6f2	-0.042960115
90	0xbcb81b16	-0.022473853
91	0x3b552d5d	0.003252826
92	0xbd236005	-0.039886493
93	0xbd426d58	-0.04746756
94	0xbcd95582	-0.026530031
95	0xbd4d509e	-0.05012571
96	0xbaa7c4b7	-0.0012799714
97	0x3d3cf83c	0.046135172
98	0xbd26bbb7	-0.040706363
99	0x3cbc8304	0.023011692
100	0x3c5a1735	0.013311197
101	0xbc9c05c5	-0.01904572
102	0xbd486fec	-0.048934862
103	0xbc38d727	-0.011281765
104	0x3cb2cb6b	0.021825513
105	0xbd05dac9	-0.032679353
106	0x3d034ab9	0.032053683
107	0x3d3cecd6	0.0461243
108	0xbc91b756	-0.017787617
109	0x3d63fde3	0.055662047
110	0xbd58abd7	-0.052898254
111	0x3d5544dd	0.052067626
112	0xbce199ef	-0.027539222
113	0xbd0ef452	-0.03490097
114	0x3bb41de7	0.0054967287
115	0x3d26eec8	0.040755063
116	0x3d25cfff	0.040481564
117	0xbb92449b	-0.004463745
118	0x3d593b70	0.0530352
119	0x3d4b709d	0.049667943
120	0x3d102c9c	0.035198793
121	0x3d190d53	0.037366223
122	0x3bc1e64e	0.005917347
123	0xbc70720f	-0.014675631
124	0xbc760904	-0.015016798
125	0x3d11a1b7	0.035554614
126	0xbc8ab6d2	-0.016932879
127	0xbd39394f	-0.04522067
128	0xbd1ad666	-0.037802123
129	0xbd3434ff	-0.043995854
130	0x3d423a8b	0.047419112
131	0x3ce430ed	0.02785536
132	0x3d0b739c	0.0340458
133	0x3cbf12d3	0.023324406
134	0xbbe515c6	-0.006991121
135	0xbc5031b0	-0.012707159
136	0x3d2d0ec6	0.042250417
137	0xbc835d26	-0.016035628
138	0xbcb4b1d1	-0.022057446
139	0x39ba6945	0.00035555116
140	0x3d29ac4e	0.04142409
141	0xbc7674f7	-0.015042535
142	0xbbd79604	-0.0065791626
143	0x3c63609f	0.013878017
144	0x3d19410d	0.037415553
145	0xbca26c74	-0.019827105
146	0xbd197c72	-0.037472196
147	0x3cfb404d	0.03067031
148	0x3bf6d02e	0.007532141
149	0x3b8cc43f	0.0042958553
150	0x3c687bdb	0.014189686
151	0x3c0fa45c	0.008767214
152	0xbcd4c4ee	-0.02597281
153	0x3d513fde	0.0510863
154	0xbcdc5088	-0.026893869
155	0xbd31af4f	-0.043380078
156	0xbcb33485	-0.02187563
157	0x3d4978e4	0.049187556
158	0x3cfa37b7	0.030544145
159	0xbd087157	-0.033311214
160	0xbd01c2ba	-0.031679846
161	0xbcd45568	-0.025919631
162	0xbd1a4560	-0.037663817
163	0xbc278f02	-0.010226967
164	0x3bca72b0	0.0061782226
165	0x3d5bf63a	0.053701617
166	0xbccf7e1e	-0.025328692
167	0xbc7ba407	-0.015358931
168	0xbd046bc5	-0.03232934
169	0x3a3a0c3f	0.0007097162
170	0x3cc98fe9	0.024604755
171	0x3d3f19c5	0.046655435
172	0xbc77d296	-0.015125891
173	0x3d02b988	0.031915218
174	0xbd0614f5	-0.03273483
175	0xbd296ac0	-0.04136157
176	0x3c851fb7	0.016250474
177	0xbc9745c0	-0.018465877
178	0xbd42bb30	-0.047541797
179	0xbca52194	-0.020157613
180	0xbd59f687	-0.053213622
181	0x3ce5504d	0.027992392
182	0x3a3a08ab	0.00070966285
183	0xbd077f5a	-0.033080436
184	0x3d12495c	0.035714492
185	0x3d414656	0.04718622
186	0xbd595fb0	-0.05306977
187	0xbd62146b	-0.055195253
188	0x3c247b7b	0.010039206
189	0x3d2b263e	0.041784517
190	0xbcb53f57	-0.02212493
191	0x3cda2a08	0.02663137
192	0x3ce7ca7b	0.028294792
193	0x3d2a0cf2	0.04151625
194	0x3d1cb781	0.03826094
195	0xbccc46e5	-0.024936149
196	0xbd225631	-0.03963298
197	0x3ce59e5b	0.028029611
198	0xbce5aab5	-0.028035501
199	0x3ceaa191	0.028641494
200	0xbcb060a9	-0.021530466
201	0x3ba07b8e	0.0048975414
202	0xbd1d09a6	-0.03833928
203	0xbcfad87b	-0.030620804
204	0x3c69852a	0.01425294
205	0x3cee3196	0.029076379
206	0x3cd5184a	0.026012558
207	0xbd409bcf	-0.04702359
208	0x3cd9a972	0.026570056
209	0xbcfdb40e	-0.030969646
210	0x3c9b0bff	0.018926619
211	0xbac270c6	-0.0014834634
212	0x3bd9152a	0.0066248374
213	0x3d489170	0.048966825
214	0xbbe37a48	-0.0069420673
215	0x3c9f9f3f	0.019485114
216	0xbd473e52	-0.048643418
217	0x3d1502cc	0.03637962
218	0x3a6eda9f	0.00091115566
219	0x3c90cd37	0.017675979
220	0x3bf38467	0.007431555
221	0xbd52348d	-0.051319648
222	0x3d3f6607	0.04672816
223	0x3d1742ae	0.036928825
224	0xbb9d53f9	-0.00480127
225	0x3bf0978b	0.007342284
226	0x3d5592ba	0.052141882
227	0xbc866ca7	-0.016409231
228	0xbb83ccde	-0.004022225
229	0xbd558d84	-0.052136913
230	0x3d0fb72a	0.03508679
231	0xbca01379	-0.019540535
232	0x3d415189	0.0471969
233	0xbd298cba	-0.041393973
234	0x3c53d05e	0.012928097
235	0xbad175ce	-0.0015980543
236	0xbd6331c4	-0.055467382
237	0x3cbbd525	0.022928784
238	0xbcf90bee	-0.030401196
239	0xbd1f9f88	-0.0389705
240	0x3d5390b2	0.051651664
241	0x3c12bae5	0.008955692
242	0xbc533eff	-0.012893437
243	0x3d50a616	0.050939642
244	0x3b5a6e5c	0.003332994
245	0xbd27a6a1	-0.040930394
246	0x3d3a3f25	0.045470376
247	0xbd3207ef	-0.043464597
248	0xbce51c85	-0.0279677
249	0xbd21ccf6	-0.039502107
250	0xbd062857	-0.032753315
251	0xbd4e073e	-0.050299875
252	0x3d3b81c7	0.045778062
253	0x3c720980	0.014772773
254	0xbb652612	-0.0034965319
255	0x3d4e637a	0.050387837

network_body.observation_encoder.processors.0.conv_layers.2.bias f4 [32]
0	0x3c361a48	0.011114664
1	0x3b81a910	0.0039569214
2	0xbd75341e	-0.059864156
3	0x3ca0fce0	0.01965183
4	0xbd2a6f40	-0.041610003
5	0x3c9efb60	0.019406974
6	0xbcbade12	-0.02281097
7	0xbd1f3282	-0.038866527
8	0x3c873850	0.016506344
9	0xbd5ffffd	-0.05468749
10	0xbd5cd6d9	-0.053915832
11	0xbc189830	-0.009313628
12	0xbd4d2e2d	-0.050092865
13	0x3b70c340	0.0036737472
14	0xbd69fff2	-0.057128854
15	0xbce46f70	-0.027885169
16	0x3a418480	0.000738211
17	0x3d1c0e1a	0.038099386
18	0xbd69c5a4	-0.05707325
19	0x3c8ea3b8	0.017412052
20	0xbce443b6	-0.027864318
21	0x3d429dd8	0.047513813
22	0x3d6dd36a	0.05806295
23	0xbb5515a0	-0.003251411
24	0xbd699841	-0.057029966
25	0xba3f4080	-0.0007295683
26	0x3c8e051c	0.01733642
27	0xbd38624f	-0.04501563
28	0x3d29c188	0.04144433
29	0x3d6afb74	0.05736871
30	0x3d551108	0.052018195
31	0x3d036b12	0.032084532

network_body.observation_encoder.processors.0.conv_layers.2.weight f4 [32, 16, 4, 4]
0	0xbd35814e	-0.044312768
1	0xbb28fa20	-0.0025783852
2	0xbd53126e	-0.051531248
3	0xbd6f5d4e	-0.05843859
4	0xbcdf00a2	-0.027221981
5	0xbc98c052	-0.018646393
6	0x3d399d88	0.04531625
7	0xbd13ea00	-0.03611183
8	0x3d4b4e48	0.0496352
9	0xbd00b0e1	-0.031418685
10	0x3b8c07f0	0.004273407
11	0xbd5d8958	-0.05408606
12	0xbcd75c2c	-0.026289068
13	0xbd5b9772	-0.053611226
14	0xbd64a34e	-0.055819802
15	0x3c22ae48	0.009929247
16	0xbd6aee31	-0.057356063
17	0x3c765e98	0.015037201
18	0x3d11783e	0.035515063
19	0xbd594884	-0.053047672
20	0x3c5acf60	0.013355106
21	0x3be39270	0.006944947
22	0xbc49666c	-0.012292486
23	0xbbdf2ff0	-0.0068111345
24	0x3d4a19c8	0.049340993
25	0x3b6b7060	0.0035925135
26	0xbcc22dc4	-0.023703463
27	0x3d73bd68	0.059506804
28	0xbd3d503c	-0.046219096
29	0x3c5c38b8	0.013441257
30	0x3cc18e24	0.023627348
31	0xbca1122c	-0.019661985
32	0x3d20dd50	0.03927356
33	0x3ce468ec	0.027882062
34	0x3ce5593c	0.027996652
35	0x3b9a3ca0	0.004706934
36	0x3d7b31f0	0.06132692
37	0xbd3e8454	-0.046512917
38	0x3d260cc6	0.040539525
39	0x3d58a070	0.05288738
40	0xbcb162cc	-0.021653555
41	0x3d04cc3e	0.032421343
42	0xbca0376c	-0.019557677
43	0xbd6ef578	-0.058339566
44	0xbc792a44	-0.015207831
45	0xbcc79916	-0.02436499
46	0x3cdb55c0	0.026774287
47	0xbd1ac711	-0.0377875
48	0x3d31d7fe	0.043418877
49	0xbd2d3658	-0.042288154
50	0xbd6e26f2	-0.05814261
51	0xbc18f3b4	-0.009335447
52	0x3b6af180	0.0035849512
53	0x3ca07df8	0.019591317
54	0xbd4e2166	-0.05032482
55	0xbca58310	-0.020204097
56	0x3d105be6	0.03524389
57	0x3c9d56bc	0.019206397
58	0xbc9ff462	-0.01952571
59	0xbb5ebc00	-0.0033986568
60	0x3b2e10a0	0.0026560202
61	0xbbc1bee0	-0.0059126467
62	0xbb609530	-0.003426861
63	0x3b9a1a70	0.0047028586
64	0x3d1a696a	0.037698187
65	0xbb991ca0	-0.004672602
66	0x3cf8b2cc	0.030358694
67	0xbd6444d9	-0.05572972
68	0xbd2419e6	-0.04006376
69	0x3d76501a	0.060134985
70	0xbd60298e	-0.05472713
71	0xbd40351a	-0.04692564
72	0x3d2071a0	0.03917086
73	0x3c178d70	0.00925003
74	0x3d109a28	0.035303265
75	0x3c7e22e0	0.015511245
76	0xbd01ff30	-0.031737506
77	0xbcd98b1a	-0.026555587
78	0x3d0192e4	0.031634226
79	0xbc02afb0	-0.0079764575
80	0x3d766b28	0.060160786
81	0x3d2b469e	0.041815393
82	0x3cd6d0d0	0.026222616
83	0xbc304d98	-0.010760687
84	0xbcfe82e4	-0.031068273
85	0xbb02a860	-0.0019936785
86	0xbc14b4b0	-0.009076282
87	0xbb2a41e0	-0.0025979206
88	0xbb099890	-0.0020995475
89	0xbd46f452	-0.048572846
90	0x3b30d5e0	0.0026982948
91	0x3cb7a36c	0.022416793
92	0xbc96a4c0	-0.018389106
93	0xbad45140	-0.0016198531
94	0xbd0f2aba	-0.034952857
95	0xbceed808	-0.029155746
96	0x3b4277a0	0.0029673353
97	0x3d01eb8a	0.03171877
98	0x3c77c888	0.015123494
99	0xbd2ac9a0	-0.04169619
100	0x3c1a97d0	0.009435609
101	0xbd678f81	-0.05653334
102	0xbbdef4c8	-0.0068040825
103	0xbc9110dc	-0.017708234
104	0xbab5fb00	-0.0013884008
105	0xbd2098f6	-0.039208375
106	0x3c3c3bc0	0.011488855
107	0x3c46b4c0	0.012128055
108	0xbd3043c6	-0.043033384
109	0x3b0fc760	0.0021938905
110	0x3d480d5a	0.048840858
111	0xbd2d384a	-0.04229001
112	0x3c28b188	0.010296233
113	0xbcb54eba	-0.022132266
114	0xbd051214	-0.032487944
115	0x3d3dd6ce	0.04634743
116	0xbd20dda8	-0.039273888
117	0x3ce3ea20	0.0278216
118	0x3d05546c	0.032551214
119	0xbd5b34cc	-0.053517148
120	0x3afc3b00	0.0019243658
121	0xbc80980c	-0.015697502
122	0xbca5b748	-0.020228997
123	0xbc95a2e0	-0.018266141
124	0x3c90df40	0.017684579
125	0xbcb698a0	-0.022289574
126	0x3d1e494a	0.038644113
127	0x3cc1e47c	0.02366852
128	0x3d02517c	0.03181599
129	0xbd29f08f	-0.04148918
130	0xbc0a3a40	-0.008436739
131	0xbd6de9b4	-0.058084205
132	0xbd60f35d	-0.05491959
133	0x3d2da8be	0.042397253
134	0x3d379144	0.04481627
135	0xbd21b5e8	-0.03948012
136	0x3c663ce0	0.0140526
137	0xbd07e0c5	-0.03317334
138	0x3d1cdfc6	0.038299344
139	0xbd120f2e	-0.035659008
140	0xbcbacc9e	-0.022802647
141	0x3d2781ca	0.04089526
142	0xbd5ffda8	-0.054685265
143	0xbd4d5a09	-0.050134692
144	0x3c3a9918	0.011389039
145	0x3cdf26d4	0.027240194
146	0xbd39caf4	-0.045359567
147	0xbd560fa1	-0.052261
148	0x3d75364a	0.059866227
149	0xbc9d1722	-0.01917607
150	0x3cd7dcdc	0.026350431
151	0x3d736446	0.0594218
152	0x3c7cd590	0.015431777
153	0xbcc67fec	-0.02423092
154	0xbd69b4e8	-0.05705729
155	0xbbadd2c0	-0.0053046644
156	0xbd25db9c	-0.04049264
157	0x3c990f84	0.018684156
158	0x3c30b0d8	0.01078435
159	0x3d32f922	0.043694623
160	0xbcff3252	-0.031151924
161	0xbd03e7bf	-0.032203432
162	0xbd726a23	-0.05918325
163	0x3c010400	0.007874489
164	0x3ca2f96c	0.019894324
165	0xbc97d018	-0.018531844
166	0x3d17f22e	0.037096195
167	0xbd33a9be	-0.04386305
168	0x3c2757c8	0.0102138
169	0x3d1d5186	0.038407825
170	0xbd372e29	-0.044721756
171	0xbc3f1624	-0.011662994
172	0xbca0a1ae	-0.019608345
173	0xbbfa2610	-0.007633932
174	0x3d466f7e	0.04844617
175	0x3cd978c8	0.02654685
176	0xbbc73f88	-0.0060805716
177	0x3d7219c8	0.05910662
178	0xbab9af40	-0.0014166608
179	0xbc6ca5a8	-0.014443792
180	0x3c05ba28	0.008162059
181	0xbcf0530c	-0.029336475
182	0x3c923a58	0.017850086
183	0xbc4c0484	-0.0124522485
184	0xbd54831a	-0.05188284
185	0x3c404028	0.011734046
186	0xbd75c852	-0.060005493
187	0xbc2266b0	-0.009912178
188	0xbb7d2200	-0.0038625002
189	0xbce68906	-0.02814151
190	0xbd384e2c	-0.044996426
191	0x3b938350	0.0045017377
192	0x3c892c98	0.016744897
193	0xbd1dd404	-0.038532272
194	0x3d7fda7e	0.06246423
195	0x3d627eb8	0.05529663
196	0x3ca4515c	0.020058326
197	0xbc1c3d0c	-0.009536039
198	0xbc897dae	-0.016783562
199	0x3cdfafe4	0.02730555
200	0x3d795922	0.06087602
201	0xbd34b364	-0.044116393
202	0xbacda860	-0.0015690438
203	0xbc687124	-0.014187131
204	0xbc09d08c	-0.008411538
205	0x3d76482c	0.060127422
206	0x3ce64404	0.028108604
207	0x3d3bda6a	0.045862593
208	0xbd1a5f16	-0.037688337
209	0xbd23300d	-0.039840747
210	0x399ed500	0.00030294806
211	0x3cd49f34	0.02595482
212	0xbd28d21a	-0.041215993
213	0x3c9ccd14	0.019140758
214	0xbd67496a	-0.056466497
215	0x3d1d074c	0.038337037
216	0xbd1f4fae	-0.038894348
217	0x3d0376c0	0.03209567
218	0xbc3fb954	-0.0117019005
219	0xbd1be12c	-0.038056538
220	0x3ccaa6f8	0.02473782
221	0xbc970202	-0.018433575
222	0x3d6e1d4a	0.0581334
223	0x3d265e4c	0.040617272
224	0x3baca400	0.0052685738
225	0x3d46232c	0.048373386
226	0x3cdc2af8	0.026875958
227	0x3ba864e0	0.0051389784
228	0x3b444f00	0.0029954314
229	0xbd5bc2e3	-0.053652655
230	0x3c984ed8	0.018592283
231	0xbca77a00	-0.020443916
232	0x3d5b9a78	0.05361411
233	0x3d0ad9c0	0.03389907
234	0xbbfa4758	-0.0076378994
235	0xbd1a75e2	-0.037710078
236	0xbd516328	-0.051119953
237	0xbd27c12c	-0.040955707
238	0xbd08f71c	-0.033438787
239	0xbbb3a310	-0.005482085
240	0xbc7b94c8	-0.015355296
241	0xbcfec82e	-0.031101312
242	0x3d14518e	0.03621059
243	0x3c8b86d0	0.017032057
244	0x3c7ce378	0.015435092
245	0xbb165230	-0.002293717
246	0x3b6bb420	0.0035965517
247	0xbd00bbd2	-0.03142912
248	0xbd060c06	-0.03272631
249	0xbd44f79b	-0.048087697
250	0x3bc76fb0	0.0060863122
251	0xbd3ebfa2	-0.046569474
252	0xbd58901b	-0.052871805
253	0xbc9f035a	-0.019410778
254	0xbd41f873	-0.04735608
255	0x3d21ca8c	0.039499804

network_body.observation_encoder.processors.0.dense.0.bias f4 [128]
0	0x00000000	0.0
1	0x00000000	0.0
2	0x00000000	0.0
3	0x00000000	0.0
4	0x00000000	0.0
5	0x00000000	0.0
6	0x00000000	0.0
7	0x00000000	0.0
8	0x00000000	0.0
9	0x00000000	0.0
10	0x00000000	0.0
11	0x00000000	0.0
12	0x00000000	0.0
13	0x00000000	0.0
14	0x00000000	0.0
15	0x00000000	0.0
16	0x00000000	0.0
17	0x00000000	0.0
18	0x00000000	0.0
19	0x00000000	0.0
20	0x00000000	0.0
21	0x00000000	0.0
22	0x00000000	0.0
23	0x00000000	0.0
24	0x00000000	0.0
25	0x00000000	0.0
26	0x00000000	0.0
27	0x00000000	0.0
28	0x00000000	0.0
29	0x00000000	0.0
30	0x00000000	0.0
31	0x00000000	0.0
32	0x00000000	0.0
33	0x00000000	0.0
34	0x00000000	0.0
35	0x00000000	0.0
36	0x00000000	0.0
37	0x00000000	0.0
38	0x00000000	0.0
39	0x00000000	0.0
40	0x00000000	0.0
41	0x00000000	0.0
42	0x00000000	0.0
43	0x00000000	0.0
44	0x00000000	0.0
45	0x00000000	0.0
46	0x00000000	0.0
47	0x00000000	0.0
48	0x00000000	0.0
49	0x00000000	0.0
50	0x00000000	0.0
51	0x00000000	0.0
52	0x00000000	0.0
53	0x00000000	0.0
54	0x00000000	0.0
55	0x00000000	0.0
56	0x00000000	0.0
57	0x00000000	0.0
58	0x00000000	0.0
59	0x00000000	0.0
60	0x00000000	0.0
61	0x00000000	0.0
62	0x00000000	0.0
63	0x00000000	0.0
64	0x00000000	0.0
65	0x00000000	0.0
66	0x00000000	0.0
67	0x00000000	0.0
68	0x00000000	0.0
69	0x00000000	0.0
70	0x00000000	0.0
71	0x00000000	0.0
72	0x00000000	0.0
73	0x00000000	0.0
74	0x00000000	0.0
75	0x00000000	0.0
76	0x00000000	0.0
77	0x00000000	0.0
78	0x00000000	0.0
79	0x00000000	0.0
80	0x00000000	0.0
81	0x00000000	0.0
82	0x00000000	0.0
83	0x00000000	0.0
84	0x00000000	0.0
85	0x00000000	0.0
86	0x00000000	0.0
87	0x00000000	0.0
88	0x00000000	0.0
89	0x00000000	0.0
90	0x00000000	0.0
91	0x00000000	0.0
92	0x00000000	0.0
93	0x00000000	0.0
94	0x00000000	0.0
95	0x00000000	0.0
96	0x00000000	0.0
97	0x00000000	0.0
98	0x00000000	0.0
99	0x00000000	0.0
100	0x00000000	0.0
101	0x00000000	0.0
102	0x00000000	0.0
103	0x00000000	0.0
104	0x00000000	0.0
105	0x00000000	0.0
106	0x00000000	0.0
107	0x00000000	0.0
108	0x00000000	0.0
109	0x00000000	0.0
110	0x00000000	0.0
111	0x00000000	0.0
112	0x00000000	0.0
113	0x00000000	0.0
114	0x00000000	0.0
115	0x00000000	0.0
116	0x00000000	0.0
117	0x00000000	0.0
118	0x00000000	0.0
119	0x00000000	0.0
120	0x00000000	0.0
121	0x00000000	0.0
122	0x00000000	0.0
123	0x00000000	0.0
124	0x00000000	0.0
125	0x00000000	0.0
126	0x00000000	0.0
127	0x00000000	0.0
