ML-Agents/Examples/FoodCollector/results/ppo/GridFoodCollector/GridFoodCollector-2560.pt (torch, 688319 bytes, 38 tensors)

network_body.observation_encoder.processors.0.conv_layers.0.weight f4 [16, 5, 8, 8]
000000 c1 27 5b bd 27 2f 51 bd 8e 57 99 bc a7 ad 31 bd
       -0.05350471 -0.05107036 -0.018718507 -0.0433785
000010 c1 4b 34 3d 43 3c 47 3d f7 9c 1a bd b7 d0 59 3d
       0.044017557 0.048641454 -0.03774735 0.05317756
000020 2c 4e e1 3c eb ea 18 bd b3 14 d0 3c e3 da 34 bd
       0.027503096 -0.03733341 0.025400495 -0.04415406
000030 57 11 08 3d 03 ad 1b 3d 6b 96 ed bb 8c b9 44 3d
       0.03321966 0.038006794 -0.0072505972 0.048028514
000040 3f bf 06 bc 8c 19 18 ba 32 17 73 3c f9 86 7b bc
       -0.008224308 -0.00058021466 0.014837073 -0.015352004
000050 01 e5 7e bc 89 a1 d9 3c 1e d7 3c bb 0c 56 21 bc
       -0.0155575285 0.026566284 -0.0028814743 -0.009847175
000060 7e b9 14 3d 4b 4e 05 bd 55 5b 03 bd 2c df 21 bd
       0.03630971 -0.03254537 -0.032069523 -0.039519474
000070 8f d3 11 bd 52 45 3d bd 80 e4 2a 3c a4 f5 2c 3d
       -0.03560215 -0.046208687 0.010430455 0.04222645
000080 d0 2f d0 bb 60 7c 38 bd 9f fb 4e 3d 22 75 58 3d
       -0.006353356 -0.04504049 0.050532933 0.05284608
000090 bf fe c7 3c b6 36 cc bb 3c 73 f8 3c 69 b3 8d 3c
       0.024413465 -0.006232108 0.030328386 0.017297463
0000a0 fb 7e 44 bd 8b d3 0f 3c b5 f0 c0 bc a1 ca 56 3d
       -0.04797266 0.008778463 -0.023552278 0.052439336
0000b0 cd 3f f5 3c b9 ad 35 bd 1c df b0 bc 94 65 18 bd
       0.02993765 -0.044355128 -0.021590762 -0.037206247
0000c0 b8 89 bb b9 2e 4b 06 3c de d3 37 bc 9e d8 5c 3d
       -0.00035770028 0.008196635 -0.011219947 0.05391752
0000d0 5f 17 8b bb bd 3e 1e bd 6d 6f 7b bc 07 8d 35 3d
       -0.0042447294 -0.03863405 -0.01534639 0.044323947
0000e0 9a ab fb ba 7b f6 18 bd e8 11 09 bd fe 15 e2 3c
       -0.0019200922 -0.037344437 -0.033464342 0.027598377
0000f0 b2 12 6b bc 46 98 8c bc f0 a2 e4 bc 95 18 1d bd
       -0.014347719 -0.017162453 -0.027909726 -0.03835352
000100 44 d8 1f bb a6 b7 dc 3a db 15 3b bd f7 49 5c bd
       -0.002439038 0.00168394 -0.04567514 -0.053781476
000110 a4 a5 4d 3d 2f cf 37 bd fb e1 ee bc 6d 9c fc 3b
       0.050206795 -0.04487532 -0.02916049 0.007709077
000120 cd 90 50 3d ce d8 22 bb 9c 8f 59 3d b2 a0 94 3c
       0.050919343 -0.0024848464 0.053115472 0.018143032
000130 31 c3 54 3d 69 04 35 bd 04 1f 94 bc e8 59 35 bd
       0.05194396 -0.04419366 -0.018081196 -0.044275194
000140 dd d9 ec bc 35 d3 10 3d 82 57 96 bb 04 7c ee bc
       -0.028912479 0.035357673 -0.0045880685 -0.02911187
000150 f9 11 c6 3c e4 3c 43 bd 37 b1 5a 3c 65 9e 36 bc
       0.024178492 -0.04766549 0.013347915 -0.011146163
000160 c1 fe d4 3c f2 f6 2f bd 16 1b b8 bc 5d 2d 55 3b
       0.026000382 -0.042960115 -0.022473853 0.003252826
000170 05 60 23 bd 58 6d 42 bd 82 55 d9 bc 9e 50 4d bd
       -0.039886493 -0.04746756 -0.026530031 -0.05012571
000180 b7 c4 a7 ba 3c f8 3c 3d b7 bb 26 bd 04 83 bc 3c
       -0.0012799714 0.046135172 -0.040706363 0.023011692
000190 35 17 5a 3c c5 05 9c bc ec 6f 48 bd 27 d7 38 bc
       0.013311197 -0.01904572 -0.048934862 -0.011281765
0001a0 6b cb b2 3c c9 da 05 bd b9 4a 03 3d d6 ec 3c 3d
       0.021825513 -0.032679353 0.032053683 0.0461243
0001b0 56 b7 91 bc e3 fd 63 3d d7 ab 58 bd dd 44 55 3d
       -0.017787617 0.055662047 -0.052898254 0.052067626
0001c0 ef 99 e1 bc 52 f4 0e bd e7 1d b4 3b c8 ee 26 3d
       -0.027539222 -0.03490097 0.0054967287 0.040755063
0001d0 ff cf 25 3d 9b 44 92 bb 70 3b 59 3d 9d 70 4b 3d
       0.040481564 -0.004463745 0.0530352 0.049667943
0001e0 9c 2c 10 3d 53 0d 19 3d 4e e6 c1 3b 0f 72 70 bc
       0.035198793 0.037366223 0.005917347 -0.014675631
0001f0 04 09 76 bc b7 a1 11 3d d2 b6 8a bc 4f 39 39 bd
       -0.015016798 0.035554614 -0.016932879 -0.04522067
000200 66 d6 1a bd ff 34 34 bd 8b 3a 42 3d ed 30 e4 3c
       -0.037802123 -0.043995854 0.047419112 0.02785536
000210 9c 73 0b 3d d3 12 bf 3c c6 15 e5 bb b0 31 50 bc
       0.0340458 0.023324406 -0.006991121 -0.012707159
000220 c6 0e 2d 3d 26 5d 83 bc d1 b1 b4 bc 45 69 ba 39
       0.042250417 -0.016035628 -0.022057446 0.00035555116
000230 4e ac 29 3d f7 74 76 bc 04 96 d7 bb 9f 60 63 3c
       0.04142409 -0.015042535 -0.0065791626 0.013878017
000240 0d 41 19 3d 74 6c a2 bc 72 7c 19 bd 4d 40 fb 3c
       0.037415553 -0.019827105 -0.037472196 0.03067031
000250 2e d0 f6 3b 3f c4 8c 3b db 7b 68 3c 5c a4 0f 3c
       0.007532141 0.0042958553 0.014189686 0.008767214
000260 ee c4 d4 bc de 3f 51 3d 88 50 dc bc 4f af 31 bd
       -0.02597281 0.0510863 -0.026893869 -0.043380078
000270 85 34 b3 bc e4 78 49 3d b7 37 fa 3c 57 71 08 bd
       -0.02187563 0.049187556 0.030544145 -0.033311214
000280 ba c2 01 bd 68 55 d4 bc 60 45 1a bd 02 8f 27 bc
       -0.031679846 -0.025919631 -0.037663817 -0.010226967
000290 b0 72 ca 3b 3a f6 5b 3d 1e 7e cf bc 07 a4 7b bc
       0.0061782226 0.053701617 -0.025328692 -0.015358931
0002a0 c5 6b 04 bd 3f 0c 3a 3a e9 8f c9 3c c5 19 3f 3d
       -0.03232934 0.0007097162 0.024604755 0.046655435
0002b0 96 d2 77 bc 88 b9 02 3d f5 14 06 bd c0 6a 29 bd
       -0.015125891 0.031915218 -0.03273483 -0.04136157
0002c0 b7 1f 85 3c c0 45 97 bc 30 bb 42 bd 94 21 a5 bc
       0.016250474 -0.018465877 -0.047541797 -0.020157613
0002d0 87 f6 59 bd 4d 50 e5 3c ab 08 3a 3a 5a 7f 07 bd
       -0.053213622 0.027992392 0.00070966285 -0.033080436
0002e0 5c 49 12 3d 56 46 41 3d b0 5f 59 bd 6b 14 62 bd
       0.035714492 0.04718622 -0.05306977 -0.055195253
0002f0 7b 7b 24 3c 3e 26 2b 3d 57 3f b5 bc 08 2a da 3c
       0.010039206 0.041784517 -0.02212493 0.02663137
000300 7b ca e7 3c f2 0c 2a 3d 81 b7 1c 3d e5 46 cc bc
       0.028294792 0.04151625 0.03826094 -0.024936149
000310 31 56 22 bd 5b 9e e5 3c b5 aa e5 bc 91 a1 ea 3c
       -0.03963298 0.028029611 -0.028035501 0.028641494
000320 a9 60 b0 bc 8e 7b a0 3b a6 09 1d bd 7b d8 fa bc
       -0.021530466 0.0048975414 -0.03833928 -0.030620804
000330 2a 85 69 3c 96 31 ee 3c 4a 18 d5 3c cf 9b 40 bd
       0.01425294 0.029076379 0.026012558 -0.04702359
000340 72 a9 d9 3c 0e b4 fd bc ff 0b 9b 3c c6 70 c2 ba
       0.026570056 -0.030969646 0.018926619 -0.0014834634
000350 2a 15 d9 3b 70 91 48 3d 48 7a e3 bb 3f 9f 9f 3c
       0.0066248374 0.048966825 -0.0069420673 0.019485114
000360 52 3e 47 bd cc 02 15 3d 9f da 6e 3a 37 cd 90 3c
       -0.048643418 0.03637962 0.00091115566 0.017675979
000370 67 84 f3 3b 8d 34 52 bd 07 66 3f 3d ae 42 17 3d
       0.007431555 -0.051319648 0.04672816 0.036928825
000380 f9 53 9d bb 8b 97 f0 3b ba 92 55 3d a7 6c 86 bc
       -0.00480127 0.007342284 0.052141882 -0.016409231
000390 de cc 83 bb 84 8d 55 bd 2a b7 0f 3d 79 13 a0 bc
       -0.004022225 -0.052136913 0.03508679 -0.019540535
0003a0 89 51 41 3d ba 8c 29 bd 5e d0 53 3c ce 75 d1 ba
       0.0471969 -0.041393973 0.012928097 -0.0015980543
0003b0 c4 31 63 bd 25 d5 bb 3c ee 0b f9 bc 88 9f 1f bd
       -0.055467382 0.022928784 -0.030401196 -0.0389705
0003c0 b2 90 53 3d e5 ba 12 3c ff 3e 53 bc 16 a6 50 3d
       0.051651664 0.008955692 -0.012893437 0.050939642
0003d0 5c 6e 5a 3b a1 a6 27 bd 25 3f 3a 3d ef 07 32 bd
       0.003332994 -0.040930394 0.045470376 -0.043464597
0003e0 85 1c e5 bc f6 cc 21 bd 57 28 06 bd 3e 07 4e bd
       -0.0279677 -0.039502107 -0.032753315 -0.050299875
0003f0 c7 81 3b 3d 80 09 72 3c 12 26 65 bb 7a 63 4e 3d
       0.045778062 0.014772773 -0.0034965319 0.050387837

network_body.observation_encoder.processors.0.conv_layers.0.bias f4 [16]
000000 67 4d ec bc 22 ca 43 bb 4c e9 10 3d 86 6b 00 3d
       -0.028845502 -0.002987512 0.03537874 0.031352542
000010 b7 14 2a 3b 4f 42 55 bd 2d 21 28 3a dc 0a 9c bc
       0.0025952288 -0.05206519 0.0006413635 -0.019048147
000020 80 ae 0b bd a1 48 1c bd 2b f8 c6 bc f3 da 33 bd
       -0.034101963 -0.0381552 -0.024288258 -0.043909978
000030 0d 86 3d bd b7 b6 28 3c 49 9b d5 bc 9c d6 49 3a
       -0.04627042 0.010297469 -0.026075022 0.0007699521

network_body.observation_encoder.processors.0.conv_layers.2.weight f4 [32, 16, 4, 4]
000000 4e 81 35 bd 20 fa 28 bb 6e 12 53 bd 4e 5d 6f bd
       -0.044312768 -0.0025783852 -0.051531248 -0.05843859
000010 a2 00 df bc 52 c0 98 bc 88 9d 39 3d 00 ea 13 bd
       -0.027221981 -0.018646393 0.04531625 -0.03611183
000020 48 4e 4b 3d e1 b0 00 bd f0 07 8c 3b 58 89 5d bd
       0.0496352 -0.031418685 0.004273407 -0.05408606
000030 2c 5c d7 bc 72 97 5b bd 4e a3 64 bd 48 ae 22 3c
       -0.026289068 -0.053611226 -0.055819802 0.009929247
000040 31 ee 6a bd 98 5e 76 3c 3e 78 11 3d 84 48 59 bd
       -0.057356063 0.015037201 0.035515063 -0.053047672
000050 60 cf 5a 3c 70 92 e3 3b 6c 66 49 bc f0 2f df bb
       0.013355106 0.006944947 -0.012292486 -0.0068111345
000060 c8 19 4a 3d 60 70 6b 3b c4 2d c2 bc 68 bd 73 3d
       0.049340993 0.0035925135 -0.023703463 0.059506804
000070 3c 50 3d bd b8 38 5c 3c 24 8e c1 3c 2c 12 a1 bc
       -0.046219096 0.013441257 0.023627348 -0.019661985
000080 50 dd 20 3d ec 68 e4 3c 3c 59 e5 3c a0 3c 9a 3b
       0.03927356 0.027882062 0.027996652 0.004706934
000090 f0 31 7b 3d 54 84 3e bd c6 0c 26 3d 70 a0 58 3d
       0.06132692 -0.046512917 0.040539525 0.05288738
0000a0 cc 62 b1 bc 3e cc 04 3d 6c 37 a0 bc 78 f5 6e bd
       -0.021653555 0.032421343 -0.019557677 -0.058339566
0000b0 44 2a 79 bc 16 99 c7 bc c0 55 db 3c 11 c7 1a bd
       -0.015207831 -0.02436499 0.026774287 -0.0377875
0000c0 fe d7 31 3d 58 36 2d bd f2 26 6e bd b4 f3 18 bc
       0.043418877 -0.042288154 -0.05814261 -0.009335447
0000d0 80 f1 6a 3b f8 7d a0 3c 66 21 4e bd 10 83 a5 bc
       0.0035849512 0.019591317 -0.05032482 -0.020204097
0000e0 e6 5b 10 3d bc 56 9d 3c 62 f4 9f bc 00 bc 5e bb
       0.03524389 0.019206397 -0.01952571 -0.0033986568
0000f0 a0 10 2e 3b e0 be c1 bb 30 95 60 bb 70 1a 9a 3b
       0.0026560202 -0.0059126467 -0.003426861 0.0047028586
000100 6a 69 1a 3d a0 1c 99 bb cc b2 f8 3c d9 44 64 bd
       0.037698187 -0.004672602 0.030358694 -0.05572972
000110 e6 19 24 bd 1a 50 76 3d 8e 29 60 bd 1a 35 40 bd
       -0.04006376 0.060134985 -0.05472713 -0.04692564
000120 a0 71 20 3d 70 8d 17 3c 28 9a 10 3d e0 22 7e 3c
       0.03917086 0.00925003 0.035303265 0.015511245
000130 30 ff 01 bd 1a 8b d9 bc e4 92 01 3d b0 af 02 bc
       -0.031737506 -0.026555587 0.031634226 -0.0079764575
000140 28 6b 76 3d 9e 46 2b 3d d0 d0 d6 3c 98 4d 30 bc
       0.060160786 0.041815393 0.026222616 -0.010760687
000150 e4 82 fe bc 60 a8 02 bb b0 b4 14 bc e0 41 2a bb
       -0.031068273 -0.0019936785 -0.009076282 -0.0025979206
000160 90 98 09 bb 52 f4 46 bd e0 d5 30 3b 6c a3 b7 3c
       -0.0020995475 -0.048572846 0.0026982948 0.022416793
000170 c0 a4 96 bc 40 51 d4 ba ba 2a 0f bd 08 d8 ee bc
       -0.018389106 -0.0016198531 -0.034952857 -0.029155746
000180 a0 77 42 3b 8a eb 01 3d 88 c8 77 3c a0 c9 2a bd
       0.0029673353 0.03171877 0.015123494 -0.04169619
000190 d0 97 1a 3c 81 8f 67 bd c8 f4 de bb dc 10 91 bc
       0.009435609 -0.05653334 -0.0068040825 -0.017708234
0001a0 00 fb b5 ba f6 98 20 bd c0 3b 3c 3c c0 b4 46 3c
       -0.0013884008 -0.039208375 0.011488855 0.012128055
0001b0 c6 43 30 bd 60 c7 0f 3b 5a 0d 48 3d 4a 38 2d bd
       -0.043033384 0.0021938905 0.048840858 -0.04229001
0001c0 88 b1 28 3c ba 4e b5 bc 14 12 05 bd ce d6 3d 3d
       0.010296233 -0.022132266 -0.032487944 0.04634743
0001d0 a8 dd 20 bd 20 ea e3 3c 6c 54 05 3d cc 34 5b bd
       -0.039273888 0.0278216 0.032551214 -0.053517148
0001e0 00 3b fc 3a 0c 98 80 bc 48 b7 a5 bc e0 a2 95 bc
       0.0019243658 -0.015697502 -0.020228997 -0.018266141
0001f0 40 df 90 3c a0 98 b6 bc 4a 49 1e 3d 7c e4 c1 3c
       0.017684579 -0.022289574 0.038644113 0.02366852
000200 7c 51 02 3d 8f f0 29 bd 40 3a 0a bc b4 e9 6d bd
       0.03181599 -0.04148918 -0.008436739 -0.058084205
000210 5d f3 60 bd be a8 2d 3d 44 91 37 3d e8 b5 21 bd
       -0.05491959 0.042397253 0.04481627 -0.03948012
000220 e0 3c 66 3c c5 e0 07 bd c6 df 1c 3d 2e 0f 12 bd
       0.0140526 -0.03317334 0.038299344 -0.035659008
000230 9e cc ba bc ca 81 27 3d a8 fd 5f bd 09 5a 4d bd
       -0.022802647 0.04089526 -0.054685265 -0.050134692
000240 18 99 3a 3c d4 26 df 3c f4 ca 39 bd a1 0f 56 bd
       0.011389039 0.027240194 -0.045359567 -0.052261
000250 4a 36 75 3d 22 17 9d bc dc dc d7 3c 46 64 73 3d
       0.059866227 -0.01917607 0.026350431 0.0594218
000260 90 d5 7c 3c ec 7f c6 bc e8 b4 69 bd c0 d2 ad bb
       0.015431777 -0.02423092 -0.05705729 -0.0053046644
000270 9c db 25 bd 84 0f 99 3c d8 b0 30 3c 22 f9 32 3d
       -0.04049264 0.018684156 0.01078435 0.043694623
000280 52 32 ff bc bf e7 03 bd 23 6a 72 bd 00 04 01 3c
       -0.031151924 -0.032203432 -0.05918325 0.007874489
000290 6c f9 a2 3c 18 d0 97 bc 2e f2 17 3d be a9 33 bd
       0.019894324 -0.018531844 0.037096195 -0.04386305
0002a0 c8 57 27 3c 86 51 1d 3d 29 2e 37 bd 24 16 3f bc
       0.0102138 0.038407825 -0.044721756 -0.011662994
0002b0 ae a1 a0 bc 10 26 fa bb 7e 6f 46 3d c8 78 d9 3c
       -0.019608345 -0.007633932 0.04844617 0.02654685
0002c0 88 3f c7 bb c8 19 72 3d 40 af b9 ba a8 a5 6c bc
       -0.0060805716 0.05910662 -0.0014166608 -0.014443792
0002d0 28 ba 05 3c 0c 53 f0 bc 58 3a 92 3c 84 04 4c bc
       0.008162059 -0.029336475 0.017850086 -0.0124522485
0002e0 1a 83 54 bd 28 40 40 3c 52 c8 75 bd b0 66 22 bc
       -0.05188284 0.011734046 -0.060005493 -0.009912178
0002f0 00 22 7d bb 06 89 e6 bc 2c 4e 38 bd 50 83 93 3b
       -0.0038625002 -0.02814151 -0.044996426 0.0045017377
000300 98 2c 89 3c 04 d4 1d bd 7e da 7f 3d b8 7e 62 3d
       0.016744897 -0.038532272 0.06246423 0.05529663
000310 5c 51 a4 3c 0c 3d 1c bc ae 7d 89 bc e4 af df 3c
       0.020058326 -0.009536039 -0.016783562 0.02730555
000320 22 59 79 3d 64 b3 34 bd 60 a8 cd ba 24 71 68 bc
       0.06087602 -0.044116393 -0.0015690438 -0.014187131
000330 8c d0 09 bc 2c 48 76 3d 04 44 e6 3c 6a da 3b 3d
       -0.008411538 0.060127422 0.028108604 0.045862593
000340 16 5f 1a bd 0d 30 23 bd 00 d5 9e 39 34 9f d4 3c
       -0.037688337 -0.039840747 0.00030294806 0.02595482
000350 1a d2 28 bd 14 cd 9c 3c 6a 49 67 bd 4c 07 1d 3d
       -0.041215993 0.019140758 -0.056466497 0.038337037
000360 ae 4f 1f bd c0 76 03 3d 54 b9 3f bc 2c e1 1b bd
       -0.038894348 0.03209567 -0.0117019005 -0.038056538
000370 f8 a6 ca 3c 02 02 97 bc 4a 1d 6e 3d 4c 5e 26 3d
       0.02473782 -0.018433575 0.0581334 0.040617272
000380 00 a4 ac 3b 2c 23 46 3d f8 2a dc 3c e0 64 a8 3b
       0.0052685738 0.048373386 0.026875958 0.0051389784
000390 00 4f 44 3b e3 c2 5b bd d8 4e 98 3c 00 7a a7 bc
       0.0029954314 -0.053652655 0.018592283 -0.020443916
0003a0 78 9a 5b 3d c0 d9 0a 3d 58 47 fa bb e2 75 1a bd
       0.05361411 0.03389907 -0.0076378994 -0.037710078
0003b0 28 63 51 bd 2c c1 27 bd 1c f7 08 bd 10 a3 b3 bb
       -0.051119953 -0.040955707 -0.033438787 -0.005482085
0003c0 c8 94 7b bc 2e c8 fe bc 8e 51 14 3d d0 86 8b 3c
       -0.015355296 -0.031101312 0.03621059 0.017032057
0003d0 78 e3 7c 3c 30 52 16 bb 20 b4 6b 3b d2 bb 00 bd
       0.015435092 -0.002293717 0.0035965517 -0.03142912
0003e0 06 0c 06 bd 9b f7 44 bd b0 6f c7 3b a2 bf 3e bd
       -0.03272631 -0.048087697 0.0060863122 -0.046569474
0003f0 1b 90 58 bd 5a 03 9f bc 73 f8 41 bd 8c ca 21 3d
       -0.052871805 -0.019410778 -0.04735608 0.039499804

network_body.observation_encoder.processors.0.conv_layers.2.bias f4 [32]
000000 48 1a 36 3c 10 a9 81 3b 1e 34 75 bd e0 fc a0 3c
       0.011114664 0.0039569214 -0.059864156 0.01965183
000010 40 6f 2a bd 60 fb 9e 3c 12 de ba bc 82 32 1f bd
       -0.041610003 0.019406974 -0.02281097 -0.038866527
000020 50 38 87 3c fd ff 5f bd d9 d6 5c bd 30 98 18 bc
       0.016506344 -0.05468749 -0.053915832 -0.009313628
000030 2d 2e 4d bd 40 c3 70 3b f2 ff 69 bd 70 6f e4 bc
       -0.050092865 0.0036737472 -0.057128854 -0.027885169
000040 80 84 41 3a 1a 0e 1c 3d a4 c5 69 bd b8 a3 8e 3c
       0.000738211 0.038099386 -0.05707325 0.017412052
000050 b6 43 e4 bc d8 9d 42 3d 6a d3 6d 3d a0 15 55 bb
       -0.027864318 0.047513813 0.05806295 -0.003251411
000060 41 98 69 bd 80 40 3f ba 1c 05 8e 3c 4f 62 38 bd
       -0.057029966 -0.0007295683 0.01733642 -0.04501563
000070 88 c1 29 3d 74 fb 6a 3d 08 11 55 3d 12 6b 03 3d
       0.04144433 0.05736871 0.052018195 0.032084532

network_body.observation_encoder.processors.0.dense.0.weight f4 [128, 288]
000000 79 c0 99 bd ae 37 fa 3d ca a3 95 bd 15 db e6 3d
       -0.07507414 0.12217651 -0.07306631 0.11272255
000010 ff 46 09 be f7 ca 8e 3c 31 c9 3f bd b1 94 ea 3c
       -0.13405989 0.017430766 -0.04682273 0.028635355
000020 15 1e 33 3e b9 cb d0 3c 10 da 81 3d c1 1b 88 3c
       0.17491944 0.025487768 0.0634042 0.016614797
000030 96 56 41 bd 74 be 90 3d 74 ba 00 3d 21 d9 03 bd
       -0.047201715 0.07067576 0.031427816 -0.032189492
000040 3d 55 f3 3c 42 ed 18 bd 28 77 3d 3e 1f 60 12 bd
       0.02970373 -0.03733564 0.18502486 -0.0357362
000050 b9 f5 f3 3d 5e 9e 2c be f8 4b 94 bc 6e db d9 3c
       0.11912102 -0.16857287 -0.018102631 0.02659389
000060 be e0 bf bd 77 23 b2 bd 7a 49 d7 3b 48 3b a6 bd
       -0.09369038 -0.08698171 0.0065700384 -0.08116776
000070 f6 03 e8 3b 12 4b 0e bd 11 4e 6c 3d 23 04 4f bd
       0.0070805503 -0.03473956 0.057691637 -0.050541054
000080 60 58 d3 bd 8a e6 15 3e b2 f8 f8 3d 15 f3 7c bd
       -0.103195906 0.14638725 0.1215681 -0.06175526
000090 f4 b8 41 3d 71 28 e0 bd 9b b8 1a 3c 99 fe 70 bd
       0.047295526 -0.109452136 0.009443427 -0.058836553
0000a0 49 a3 d1 bc 84 d8 09 3c ff f9 8a bd f4 ec af 3c
       -0.025590556 0.008413438 -0.06785964 0.021475293
0000b0 71 f2 69 3c 51 90 15 3d bd 92 27 3d b3 14 f9 3c
       0.014278994 0.036514584 0.040911425 0.030405378
0000c0 69 72 cf bc a4 2d c0 3d fe 5f e1 3c 97 db 5b 3d
       -0.02532311 0.09383705 0.027511593 0.053676214
0000d0 b8 a1 54 bc 99 d5 a2 3a 82 77 99 3d 81 24 43 3e
       -0.01297801 0.0012423276 0.074934974 0.19056894
0000e0 11 62 52 3d f5 3b 16 3b d1 f4 e2 3d f3 21 c0 3b
       0.051363055 0.002292392 0.11081851 0.005863422
0000f0 83 56 19 3d d2 cb 7f 3d e1 74 55 3d 4d 89 83 3a
       0.03743602 0.062450238 0.052113418 0.0010035426
000100 b1 42 56 3d c5 da a6 bc aa ed ae 3d 0f d7 aa 3d
       0.052309696 -0.02036799 0.085414246 0.083418004
000110 1d d8 04 3e d2 0e 82 bc 66 9a 33 3e 0d 5d 19 be
       0.12973066 -0.015876208 0.17539367 -0.14976902
000120 22 a7 92 bd 4e 32 97 bd 83 24 f7 3d a9 11 47 b9
       -0.07160784 -0.07382642 0.12067511 -0.00018984698
000130 47 00 b0 bd 23 ce b0 3d 71 ab 64 3d 76 17 9d bd
       -0.08593803 0.086330675 0.05582756 -0.076704904
000140 d7 9a 93 3d 1f 73 a7 bd e0 52 7b 3c f2 54 37 bc
       0.07207268 -0.081762545 0.015339583 -0.011189686
000150 ee 84 17 bb 27 e8 01 bd 6a d3 32 bd 14 55 00 3d
       -0.0023120004 -0.03171554 -0.04365865 0.031331137
000160 fc 11 eb 3c a0 77 07 be 2f 43 c9 bd 2b e3 43 3e
       0.028695099 -0.13229227 -0.098272674 0.19129626
000170 c3 d5 1d bc de d2 74 3c 83 50 33 3d 77 62 88 3d
       -0.009633484 0.014942853 0.043777954 0.06659406
000180 a0 23 ac bc ef ca 8b 3c 33 d6 27 3e d8 20 1a 3e
       -0.021013081 0.01706454 0.16390304 0.15051591
000190 2e 57 bd bd 70 3b 8a bd 5a 53 91 bc e8 8f b5 bd
       -0.09245144 -0.06749618 -0.01773994 -0.088653386
0001a0 f1 94 ee bd 42 4d 56 bd ee 0a 2d 3d ea 94 21 3d
       -0.11649502 -0.052319773 0.04224675 0.039448656
0001b0 12 2b 12 be 3e 1f 18 3e c3 c0 90 3b 22 85 c5 3d
       -0.14274243 0.14855668 0.0044175102 0.09644534
0001c0 9f 46 03 3e 0a da 10 bd cb ff e7 3d 53 df 44 bd
       0.12819909 -0.03536419 0.113280855 -0.04806454
0001d0 9f b5 90 bc a1 6d 94 3c e3 fd 0b be 90 48 aa 3c
       -0.017664729 0.018118681 -0.13671069 0.020786554
0001e0 e7 07 8e 3d 5d 8f ab 3c 5e 38 16 be d3 3d 02 be
       0.06935101 0.020942384 -0.1466994 -0.12718897
0001f0 e4 35 98 3d 7b ce 3b 3c 02 ce 01 3e cb 2c 9e 3c
       0.07432154 0.011462803 0.12676242 0.019308468
000200 6c a1 2b 3d be 4c 18 3e 00 19 b9 bc ee 5e 28 3b
       0.04190199 0.14873025 -0.022594929 0.0025691348
000210 d2 4f 3c bd ac be 0b be 75 11 57 bd 79 ec 1c 3e
       -0.04597456 -0.13646954 -0.052506883 0.15324582
000220 91 7f 62 be 97 08 09 bd 09 79 a9 3d dc 24 9d bd
       -0.22118975 -0.033455458 0.08275039 -0.07673046
000230 10 f1 61 bc e3 95 a4 bb 25 51 9a bd 3a 95 8b bd
       -0.013790384 -0.0050227507 -0.07535008 -0.06815572
000240 7e ae bf bc 7b 26 83 3d 97 70 c5 bd 2f f2 01 3c
       -0.023398634 0.06403824 -0.096406154 0.007931276
000250 f0 35 e5 bc 2a 74 34 3e e2 48 ab bd 88 19 e5 3d
       -0.027979821 0.17622438 -0.08363511 0.1118651
000260 0b f8 25 3e bd 7d 7b bd f7 d8 8e 3d 27 d3 dc 3c
       0.16207902 -0.06139921 0.069749765 0.026956154
000270 32 0e ca 3d 05 33 2e bd dc fe c6 bc 71 19 fe 3d
       0.09865989 -0.042529125 -0.024291448 0.12407196
000280 a0 2e 4d bd 60 1d eb 3c 6f 2e e5 3d 0f 15 5d bd
       -0.050093293 0.02870053 0.11190497 -0.05397516
000290 14 f6 1d bd 7b 72 78 bd 3e d4 91 3d 7d 17 38 3d
       -0.038564757 -0.060656052 0.0712056 0.044944275
0002a0 a6 1e b3 3b 6a 34 e2 bd 62 b2 03 3c d7 0c 2b 3d
       0.0054663 -0.110451534 0.008038135 0.041760292
0002b0 3b ab 3b be 60 a1 a6 bc d6 1d 03 bd f6 70 cb bd
       -0.18327038 -0.020340621 -0.032010876 -0.09933655
0002c0 de 81 01 3e d4 94 3f 3e 06 0b 43 3d c8 28 32 3e
       0.12647197 0.18709117 0.047617935 0.1739837
0002d0 ec 70 9f 3d 87 f5 f9 bc 1a 34 77 3d 31 1e cc bd
       0.0778521 -0.030512584 0.060352422 -0.09966696
0002e0 05 d2 8b 3d 3e e4 88 3d ee e9 b5 3d 39 72 78 bd
       0.068271674 0.06684159 0.08882509 -0.060655806
0002f0 00 0e e5 bc db 4d 3c 3d 19 9f fb 3a 7c 01 ce 3c
       -0.027960777 0.045972686 0.0019197195 0.025147192
000300 36 5a c5 3d c1 3c 9b ba b0 f8 be bd b0 42 82 3d
       0.09636347 -0.0011843668 -0.09324777 0.06360376
000310 b6 c6 ab bb ee b7 62 bd 28 d2 2a bc 6f fc 8f bd
       -0.005242194 -0.05535119 -0.010426082 -0.0703057
000320 47 21 10 bd 6a 2a 4c bd 0f a4 07 3d b1 74 1c be
       -0.035187986 -0.049845137 0.033115443 -0.15278889
000330 fd 87 70 3d ce 39 99 bc 1f 8e 00 be 24 24 a3 bc
       0.05872344 -0.018704321 -0.12554215 -0.019914694
000340 30 dd 05 bd db d4 39 3c 71 09 e6 3d ba 33 9b bc
       -0.032681644 0.011342253 0.112322696 -0.018945564
000350 36 32 63 bd ae 50 ca 3d 8b 6b ee bb ff 76 6c 3d
       -0.055467807 0.0987867 -0.0072760037 0.05773067
000360 34 6a e9 bc d6 75 4c bd f1 ad b1 bd 74 c9 44 3d
       -0.028493024 -0.049917065 -0.08675755 0.048043683
000370 b2 80 ae bd 4b de e0 bc 98 26 8c 3d 49 fc b9 bd
       -0.085206404 -0.027449748 0.06843299 -0.09081323
000380 6a 9b 81 bd 47 6b ef bd 58 48 37 3d 04 41 1f 3d
       -0.06328471 -0.116903834 0.044746727 0.038880363
000390 44 8e ab bd 4a a4 99 bc 66 32 81 3c 9d 1a b4 bd
       -0.083767444 -0.018755097 0.015771102 -0.087941386
0003a0 78 37 37 bd e8 48 aa bd 89 b3 ca 3a b4 59 03 bd
       -0.044730633 -0.08314687 0.0015464883 -0.03206797
0003b0 33 d8 2e 3d f8 3f f0 bd 9c 09 84 3c 05 c3 a4 bd
       0.042686652 -0.11730951 0.016117863 -0.080450095
0003c0 0b aa d6 3c 7f cc c1 3d bf a5 92 3a 19 ca 0a 3e
       0.02620413 0.09462833 0.0011188312 0.13553657
0003d0 83 99 f6 3d c6 84 30 bd 89 c8 a1 bd 04 a2 63 3c
       0.12040999 -0.043095373 -0.07899577 0.013893608
0003e0 71 33 3d 3e af 1a cb 3b e9 98 6b bd ae 26 35 3d
       0.18476655 0.0061982493 -0.057518873 0.04422634
0003f0 97 02 46 3d cd b3 65 bd 36 63 1e bc 0c 73 a4 3c
       0.048342314 -0.056079675 -0.009667208 0.02007439

network_body.observation_encoder.processors.0.dense.0.bias f4 [128]
000000 00 00 00 00 00 00 00 00 00 00 00 00 00 00 00 00
       0.0 0.0 0.0 0.0
000010 00 00 00 00 00 00 00 00 00 00 00 00 00 00 00 00
       0.0 0.0 0.0 0.0
000020 00 00 00 00 00 00 00 00 00 00 00 00 00 00 00 00
       0.0 0.0 0.0 0.0
000030 00 00 00 00 00 00 00 00 00 00 00 00 00 00 00 00
       0.0 0.0 0.0 0.0
000040 00 00 00 00 00 00 00 00 00 00 00 00 00 00 00 00
       0.0 0.0 0.0 0.0
000050 00 00 00 00 00 00 00 00 00 00 00 00 00 00 00 00
       0.0 0.0 0.0 0.0
000060 00 00 00 00 00 00 00 00 00 00 00 00 00 00 00 00
       0.0 0.0 0.0 0.0
000070 00 00 00 00 00 00 00 00 00 00 00 00 00 00 00 00
       0.0 0.0 0.0 0.0
000080 00 00 00 00 00 00 00 00 00 00 00 00 00 00 00 00
       0.0 0.0 0.0 0.0
000090 00 00 00 00 00 00 00 00 00 00 00 00 00 00 00 00
       0.0 0.0 0.0 0.0
0000a0 00 00 00 00 00 00 00 00 00 00 00 00 00 00 00 00
       0.0 0.0 0.0 0.0
0000b0 00 00 00 00 00 00 00 00 00 00 00 00 00 00 00 00
       0.0 0.0 0.0 0.0
0000c0 00 00 00 00 00 00 00 00 00 00 00 00 00 00 00 00
       0.0 0.0 0.0 0.0
0000d0 00 00 00 00 00 00 00 00 00 00 00 00 00 00 00 00
       0.0 0.0 0.0 0.0
0000e0 00 00 00 00 00 00 00 00 00 00 00 00 00 00 00 00
       0.0 0.0 0.0 0.0
0000f0 00 00 00 00 00 00 00 00 00 00 00 00 00 00 00 00
       0.0 0.0 0.0 0.0
000100 00 00 00 00 00 00 00 00 00 00 00 00 00 00 00 00
       0.0 0.0 0.0 0.0
000110 00 00 00 00 00 00 00 00 00 00 00 00 00 00 00 00
       0.0 0.0 0.0 0.0
000120 00 00 00 00 00 00 00 00 00 00 00 00 00 00 00 00
       0.0 0.0 0.0 0.0
000130 00 00 00 00 00 00 00 00 00 00 00 00 00 00 00 00
       0.0 0.0 0.0 0.0
000140 00 00 00 00 00 00 00 00 00 00 00 00 00 00 00 00
       0.0 0.0 0.0 0.0
000150 00 00 00 00 00 00 00 00 00 00 00 00 00 00 00 00
       0.0 0.0 0.0 0.0
000160 00 00 00 00 00 00 00 00 00 00 00 00 00 00 00 00
       0.0 0.0 0.0 0.0
000170 00 00 00 00 00 00 00 00 00 00 00 00 00 00 00 00
       0.0 0.0 0.0 0.0
000180 00 00 00 00 00 00 00 00 00 00 00 00 00 00 00 00
       0.0 0.0 0.0 0.0
000190 00 00 00 00 00 00 00 00 00 00 00 00 00 00 00 00
       0.0 0.0 0.0 0.0
0001a0 00 00 00 00 00 00 00 00 00 00 00 00 00 00 00 00
       0.0 0.0 0.0 0.0
0001b0 00 00 00 00 00 00 00 00 00 00 00 00 00 00 00 00
       0.0 0.0 0.0 0.0
0001c0 00 00 00 00 00 00 00 00 00 00 00 00 00 00 00 00
       0.0 0.0 0.0 0.0
0001d0 00 00 00 00 00 00 00 00 00 00 00 00 00 00 00 00
       0.0 0.0 0.0 0.0
0001e0 00 00 00 00 00 00 00 00 00 00 00 00 00 00 00 00
       0.0 0.0 0.0 0.0
0001f0 00 00 00 00 00 00 00 00 00 00 00 00 00 00 00 00
       0.0 0.0 0.0 0.0

network_body.processors.0.conv_layers.0.weight f4 [16, 5, 8, 8]
000000 c1 27 5b bd 27 2f 51 bd 8e 57 99 bc a7 ad 31 bd
       -0.05350471 -0.05107036 -0.018718507 -0.0433785
000010 c1 4b 34 3d 43 3c 47 3d f7 9c 1a bd b7 d0 59 3d
       0.044017557 0.048641454 -0.03774735 0.05317756
000020 2c 4e e1 3c eb ea 18 bd b3 14 d0 3c e3 da 34 bd
       0.027503096 -0.03733341 0.025400495 -0.04415406
000030 57 11 08 3d 03 ad 1b 3d 6b 96 ed bb 8c b9 44 3d
       0.03321966 0.038006794 -0.0072505972 0.048028514
000040 3f bf 06 bc 8c 19 18 ba 32 17 73 3c f9 86 7b bc
       -0.008224308 -0.00058021466 0.014837073 -0.015352004
000050 01 e5 7e bc 89 a1 d9 3c 1e d7 3c bb 0c 56 21 bc
       -0.0155575285 0.026566284 -0.0028814743 -0.009847175
000060 7e b9 14 3d 4b 4e 05 bd 55 5b 03 bd 2c df 21 bd
       0.03630971 -0.03254537 -0.032069523 -0.039519474
000070 8f d3 11 bd 52 45 3d bd 80 e4 2a 3c a4 f5 2c 3d
       -0.03560215 -0.046208687 0.010430455 0.04222645
000080 d0 2f d0 bb 60 7c 38 bd 9f fb 4e 3d 22 75 58 3d
       -0.006353356 -0.04504049 0.050532933 0.05284608
000090 bf fe c7 3c b6 36 cc bb 3c 73 f8 3c 69 b3 8d 3c
       0.024413465 -0.006232108 0.030328386 0.017297463
0000a0 fb 7e 44 bd 8b d3 0f 3c b5 f0 c0 bc a1 ca 56 3d
       -0.04797266 0.008778463 -0.023552278 0.052439336
0000b0 cd 3f f5 3c b9 ad 35 bd 1c df b0 bc 94 65 18 bd
       0.02993765 -0.044355128 -0.021590762 -0.037206247
0000c0 b8 89 bb b9 2e 4b 06 3c de d3 37 bc 9e d8 5c 3d
       -0.00035770028 0.008196635 -0.011219947 0.05391752
0000d0 5f 17 8b bb bd 3e 1e bd 6d 6f 7b bc 07 8d 35 3d
       -0.0042447294 -0.03863405 -0.01534639 0.044323947
0000e0 9a ab fb ba 7b f6 18 bd e8 11 09 bd fe 15 e2 3c
       -0.0019200922 -0.037344437 -0.033464342 0.027598377
0000f0 b2 12 6b bc 46 98 8c bc f0 a2 e4 bc 95 18 1d bd
       -0.014347719 -0.017162453 -0.027909726 -0.03835352
000100 44 d8 1f bb a6 b7 dc 3a db 15 3b bd f7 49 5c bd
       -0.002439038 0.00168394 -0.04567514 -0.053781476
000110 a4 a5 4d 3d 2f cf 37 bd fb e1 ee bc 6d 9c fc 3b
       0.050206795 -0.04487532 -0.02916049 0.007709077
000120 cd 90 50 3d ce d8 22 bb 9c 8f 59 3d b2 a0 94 3c
       0.050919343 -0.0024848464 0.053115472 0.018143032
000130 31 c3 54 3d 69 04 35 bd 04 1f 94 bc e8 59 35 bd
       0.05194396 -0.04419366 -0.018081196 -0.044275194
000140 dd d9 ec bc 35 d3 10 3d 82 57 96 bb 04 7c ee bc
       -0.028912479 0.035357673 -0.0045880685 -0.02911187
000150 f9 11 c6 3c e4 3c 43 bd 37 b1 5a 3c 65 9e 36 bc
       0.024178492 -0.04766549 0.013347915 -0.011146163
000160 c1 fe d4 3c f2 f6 2f bd 16 1b b8 bc 5d 2d 55 3b
       0.026000382 -0.042960115 -0.022473853 0.003252826
000170 05 60 23 bd 58 6d 42 bd 82 55 d9 bc 9e 50 4d bd
       -0.039886493 -0.04746756 -0.026530031 -0.05012571
000180 b7 c4 a7 ba 3c f8 3c 3d b7 bb 26 bd 04 83 bc 3c
       -0.0012799714 0.046135172 -0.040706363 0.023011692
000190 35 17 5a 3c c5 05 9c bc ec 6f 48 bd 27 d7 38 bc
       0.013311197 -0.01904572 -0.048934862 -0.011281765
0001a0 6b cb b2 3c c9 da 05 bd b9 4a 03 3d d6 ec 3c 3d
       0.021825513 -0.032679353 0.032053683 0.0461243
0001b0 56 b7 91 bc e3 fd 63 3d d7 ab 58 bd dd 44 55 3d
       -0.017787617 0.055662047 -0.052898254 0.052067626
0001c0 ef 99 e1 bc 52 f4 0e bd e7 1d b4 3b c8 ee 26 3d
       -0.027539222 -0.03490097 0.0054967287 0.040755063
0001d0 ff cf 25 3d 9b 44 92 bb 70 3b 59 3d 9d 70 4b 3d
       0.040481564 -0.004463745 0.0530352 0.049667943
0001e0 9c 2c 10 3d 53 0d 19 3d 4e e6 c1 3b 0f 72 70 bc
       0.035198793 0.037366223 0.005917347 -0.014675631
0001f0 04 09 76 bc b7 a1 11 3d d2 b6 8a bc 4f 39 39 bd
       -0.015016798 0.035554614 -0.016932879 -0.04522067
000200 66 d6 1a bd ff 34 34 bd 8b 3a 42 3d ed 30 e4 3c
       -0.037802123 -0.043995854 0.047419112 0.02785536
000210 9c 73 0b 3d d3 12 bf 3c c6 15 e5 bb b0 31 50 bc
       0.0340458 0.023324406 -0.006991121 -0.012707159
000220 c6 0e 2d 3d 26 5d 83 bc d1 b1 b4 bc 45 69 ba 39
       0.042250417 -0.016035628 -0.022057446 0.00035555116
000230 4e ac 29 3d f7 74 76 bc 04 96 d7 bb 9f 60 63 3c
       0.04142409 -0.015042535 -0.0065791626 0.013878017
000240 0d 41 19 3d 74 6c a2 bc 72 7c 19 bd 4d 40 fb 3c
       0.037415553 -0.019827105 -0.037472196 0.03067031
000250 2e d0 f6 3b 3f c4 8c 3b db 7b 68 3c 5c a4 0f 3c
       0.007532141 0.0042958553 0.014189686 0.008767214
000260 ee c4 d4 bc de 3f 51 3d 88 50 dc bc 4f af 31 bd
       -0.02597281 0.0510863 -0.026893869 -0.043380078
000270 85 34 b3 bc e4 78 49 3d b7 37 fa 3c 57 71 08 bd
       -0.02187563 0.049187556 0.030544145 -0.033311214
000280 ba c2 01 bd 68 55 d4 bc 60 45 1a bd 02 8f 27 bc
       -0.031679846 -0.025919631 -0.037663817 -0.010226967
000290 b0 72 ca 3b 3a f6 5b 3d 1e 7e cf bc 07 a4 7b bc
       0.0061782226 0.053701617 -0.025328692 -0.015358931
0002a0 c5 6b 04 bd 3f 0c 3a 3a e9 8f c9 3c c5 19 3f 3d
       -0.03232934 0.0007097162 0.024604755 0.046655435
0002b0 96 d2 77 bc 88 b9 02 3d f5 14 06 bd c0 6a 29 bd
       -0.015125891 0.031915218 -0.03273483 -0.04136157
0002c0 b7 1f 85 3c c0 45 97 bc 30 bb 42 bd 94 21 a5 bc
       0.016250474 -0.018465877 -0.047541797 -0.020157613
0002d0 87 f6 59 bd 4d 50 e5 3c ab 08 3a 3a 5a 7f 07 bd
       -0.053213622 0.027992392 0.00070966285 -0.033080436
0002e0 5c 49 12 3d 56 46 41 3d b0 5f 59 bd 6b 14 62 bd
       0.035714492 0.04718622 -0.05306977 -0.055195253
0002f0 7b 7b 24 3c 3e 26 2b 3d 57 3f b5 bc 08 2a da 3c
       0.010039206 0.041784517 -0.02212493 0.02663137
000300 7b ca e7 3c f2 0c 2a 3d 81 b7 1c 3d e5 46 cc bc
       0.028294792 0.04151625 0.03826094 -0.024936149
000310 31 56 22 bd 5b 9e e5 3c b5 aa e5 bc 91 a1 ea 3c
       -0.03963298 0.028029611 -0.028035501 0.028641494
000320 a9 60 b0 bc 8e 7b a0 3b a6 09 1d bd 7b d8 fa bc
       -0.021530466 0.0048975414 -0.03833928 -0.030620804
000330 2a 85 69 3c 96 31 ee 3c 4a 18 d5 3c cf 9b 40 bd
       0.01425294 0.029076379 0.026012558 -0.04702359
000340 72 a9 d9 3c 0e b4 fd bc ff 0b 9b 3c c6 70 c2 ba
       0.026570056 -0.030969646 0.018926619 -0.0014834634
000350 2a 15 d9 3b 70 91 48 3d 48 7a e3 bb 3f 9f 9f 3c
       0.0066248374 0.048966825 -0.0069420673 0.019485114
000360 52 3e 47 bd cc 02 15 3d 9f da 6e 3a 37 cd 90 3c
       -0.048643418 0.03637962 0.00091115566 0.017675979
000370 67 84 f3 3b 8d 34 52 bd 07 66 3f 3d ae 42 17 3d
       0.007431555 -0.051319648 0.04672816 0.036928825
000380 f9 53 9d bb 8b 97 f0 3b ba 92 55 3d a7 6c 86 bc
       -0.00480127 0.007342284 0.052141882 -0.016409231
000390 de cc 83 bb 84 8d 55 bd 2a b7 0f 3d 79 13 a0 bc
       -0.004022225 -0.052136913 0.03508679 -0.019540535
0003a0 89 51 41 3d ba 8c 29 bd 5e d0 53 3c ce 75 d1 ba
       0.0471969 -0.041393973 0.012928097 -0.0015980543
0003b0 c4 31 63 bd 25 d5 bb 3c ee 0b f9 bc 88 9f 1f bd
       -0.055467382 0.022928784 -0.030401196 -0.0389705
0003c0 b2 90 53 3d e5 ba 12 3c ff 3e 53 bc 16 a6 50 3d
       0.051651664 0.008955692 -0.012893437 0.050939642
0003d0 5c 6e 5a 3b a1 a6 27 bd 25 3f 3a 3d ef 07 32 bd
       0.003332994 -0.040930394 0.045470376 -0.043464597
0003e0 85 1c e5 bc f6 cc 21 bd 57 28 06 bd 3e 07 4e bd
       -0.0279677 -0.039502107 -0.032753315 -0.050299875
0003f0 c7 81 3b 3d 80 09 72 3c 12 26 65 bb 7a 63 4e 3d
       0.045778062 0.014772773 -0.0034965319 0.050387837

network_body.processors.0.conv_layers.0.bias f4 [16]
000000 67 4d ec bc 22 ca 43 bb 4c e9 10 3d 86 6b 00 3d
       -0.028845502 -0.002987512 0.03537874 0.031352542
000010 b7 14 2a 3b 4f 42 55 bd 2d 21 28 3a dc 0a 9c bc
       0.0025952288 -0.05206519 0.0006413635 -0.019048147
000020 80 ae 0b bd a1 48 1c bd 2b f8 c6 bc f3 da 33 bd
       -0.034101963 -0.0381552 -0.024288258 -0.043909978
000030 0d 86 3d bd b7 b6 28 3c 49 9b d5 bc 9c d6 49 3a
       -0.04627042 0.010297469 -0.026075022 0.0007699521

network_body.processors.0.conv_layers.2.weight f4 [32, 16, 4, 4]
000000 4e 81 35 bd 20 fa 28 bb 6e 12 53 bd 4e 5d 6f bd
       -0.044312768 -0.0025783852 -0.051531248 -0.05843859
000010 a2 00 df bc 52 c0 98 bc 88 9d 39 3d 00 ea 13 bd
       -0.027221981 -0.018646393 0.04531625 -0.03611183
000020 48 4e 4b 3d e1 b0 00 bd f0 07 8c 3b 58 89 5d bd
       0.0496352 -0.031418685 0.004273407 -0.05408606
000030 2c 5c d7 bc 72 97 5b bd 4e a3 64 bd 48 ae 22 3c
       -0.026289068 -0.053611226 -0.055819802 0.009929247
000040 31 ee 6a bd 98 5e 76 3c 3e 78 11 3d 84 48 59 bd
       -0.057356063 0.015037201 0.035515063 -0.053047672
000050 60 cf 5a 3c 70 92 e3 3b 6c 66 49 bc f0 2f df bb
       0.013355106 0.006944947 -0.012292486 -0.0068111345
000060 c8 19 4a 3d 60 70 6b 3b c4 2d c2 bc 68 bd 73 3d
       0.049340993 0.0035925135 -0.023703463 0.059506804
000070 3c 50 3d bd b8 38 5c 3c 24 8e c1 3c 2c 12 a1 bc
       -0.046219096 0.013441257 0.023627348 -0.019661985
000080 50 dd 20 3d ec 68 e4 3c 3c 59 e5 3c a0 3c 9a 3b
       0.03927356 0.027882062 0.027996652 0.004706934
000090 f0 31 7b 3d 54 84 3e bd c6 0c 26 3d 70 a0 58 3d
       0.06132692 -0.046512917 0.040539525 0.05288738
0000a0 cc 62 b1 bc 3e cc 04 3d 6c 37 a0 bc 78 f5 6e bd
       -0.021653555 0.032421343 -0.019557677 -0.058339566
0000b0 44 2a 79 bc 16 99 c7 bc c0 55 db 3c 11 c7 1a bd
       -0.015207831 -0.02436499 0.026774287 -0.0377875
0000c0 fe d7 31 3d 58 36 2d bd f2 26 6e bd b4 f3 18 bc
       0.043418877 -0.042288154 -0.05814261 -0.009335447
0000d0 80 f1 6a 3b f8 7d a0 3c 66 21 4e bd 10 83 a5 bc
       0.0035849512 0.019591317 -0.05032482 -0.020204097
0000e0 e6 5b 10 3d bc 56 9d 3c 62 f4 9f bc 00 bc 5e bb
       0.03524389 0.019206397 -0.01952571 -0.0033986568
0000f0 a0 10 2e 3b e0 be c1 bb 30 95 60 bb 70 1a 9a 3b
       0.0026560202 -0.0059126467 -0.003426861 0.0047028586
000100 6a 69 1a 3d a0 1c 99 bb cc b2 f8 3c d9 44 64 bd
       0.037698187 -0.004672602 0.030358694 -0.05572972
000110 e6 19 24 bd 1a 50 76 3d 8e 29 60 bd 1a 35 40 bd
       -0.04006376 0.060134985 -0.05472713 -0.04692564
000120 a0 71 20 3d 70 8d 17 3c 28 9a 10 3d e0 22 7e 3c
       0.03917086 0.00925003 0.035303265 0.015511245
000130 30 ff 01 bd 1a 8b d9 bc e4 92 01 3d b0 af 02 bc
       -0.031737506 -0.026555587 0.031634226 -0.0079764575
000140 28 6b 76 3d 9e 46 2b 3d d0 d0 d6 3c 98 4d 30 bc
       0.060160786 0.041815393 0.026222616 -0.010760687
000150 e4 82 fe bc 60 a8 02 bb b0 b4 14 bc e0 41 2a bb
       -0.031068273 -0.0019936785 -0.009076282 -0.0025979206
000160 90 98 09 bb 52 f4 46 bd e0 d5 30 3b 6c a3 b7 3c
       -0.0020995475 -0.048572846 0.0026982948 0.022416793
000170 c0 a4 96 bc 40 51 d4 ba ba 2a 0f bd 08 d8 ee bc
       -0.018389106 -0.0016198531 -0.034952857 -0.029155746
000180 a0 77 42 3b 8a eb 01 3d 88 c8 77 3c a0 c9 2a bd
       0.0029673353 0.03171877 0.015123494 -0.04169619
000190 d0 97 1a 3c 81 8f 67 bd c8 f4 de bb dc 10 91 bc
       0.009435609 -0.05653334 -0.0068040825 -0.017708234
0001a0 00 fb b5 ba f6 98 20 bd c0 3b 3c 3c c0 b4 46 3c
       -0.0013884008 -0.039208375 0.011488855 0.012128055
0001b0 c6 43 30 bd 60 c7 0f 3b 5a 0d 48 3d 4a 38 2d bd
       -0.043033384 0.0021938905 0.048840858 -0.04229001
0001c0 88 b1 28 3c ba 4e b5 bc 14 12 05 bd ce d6 3d 3d
       0.010296233 -0.022132266 -0.032487944 0.04634743
0001d0 a8 dd 20 bd 20 ea e3 3c 6c 54 05 3d cc 34 5b bd
       -0.039273888 0.0278216 0.032551214 -0.053517148
0001e0 00 3b fc 3a 0c 98 80 bc 48 b7 a5 bc e0 a2 95 bc
       0.0019243658 -0.015697502 -0.020228997 -0.018266141
0001f0 40 df 90 3c a0 98 b6 bc 4a 49 1e 3d 7c e4 c1 3c
       0.017684579 -0.022289574 0.038644113 0.02366852
000200 7c 51 02 3d 8f f0 29 bd 40 3a 0a bc b4 e9 6d bd
       0.03181599 -0.04148918 -0.008436739 -0.058084205
000210 5d f3 60 bd be a8 2d 3d 44 91 37 3d e8 b5 21 bd
       -0.05491959 0.042397253 0.04481627 -0.03948012
000220 e0 3c 66 3c c5 e0 07 bd c6 df 1c 3d 2e 0f 12 bd
       0.0140526 -0.03317334 0.038299344 -0.035659008
000230 9e cc ba bc ca 81 27 3d a8 fd 5f bd 09 5a 4d bd
       -0.022802647 0.04089526 -0.054685265 -0.050134692
000240 18 99 3a 3c d4 26 df 3c f4 ca 39 bd a1 0f 56 bd
       0.011389039 0.027240194 -0.045359567 -0.052261
000250 4a 36 75 3d 22 17 9d bc dc dc d7 3c 46 64 73 3d
       0.059866227 -0.01917607 0.026350431 0.0594218
000260 90 d5 7c 3c ec 7f c6 bc e8 b4 69 bd c0 d2 ad bb
       0.015431777 -0.02423092 -0.05705729 -0.0053046644
000270 9c db 25 bd 84 0f 99 3c d8 b0 30 3c 22 f9 32 3d
       -0.04049264 0.018684156 0.01078435 0.043694623
000280 52 32 ff bc bf e7 03 bd 23 6a 72 bd 00 04 01 3c
       -0.031151924 -0.032203432 -0.05918325 0.007874489
000290 6c f9 a2 3c 18 d0 97 bc 2e f2 17 3d be a9 33 bd
       0.019894324 -0.018531844 0.037096195 -0.04386305
0002a0 c8 57 27 3c 86 51 1d 3d 29 2e 37 bd 24 16 3f bc
       0.0102138 0.038407825 -0.044721756 -0.011662994
0002b0 ae a1 a0 bc 10 26 fa bb 7e 6f 46 3d c8 78 d9 3c
       -0.019608345 -0.007633932 0.04844617 0.02654685
0002c0 88 3f c7 bb c8 19 72 3d 40 af b9 ba a8 a5 6c bc
       -0.0060805716 0.05910662 -0.0014166608 -0.014443792
0002d0 28 ba 05 3c 0c 53 f0 bc 58 3a 92 3c 84 04 4c bc
       0.008162059 -0.029336475 0.017850086 -0.0124522485
0002e0 1a 83 54 bd 28 40 40 3c 52 c8 75 bd b0 66 22 bc
       -0.05188284 0.011734046 -0.060005493 -0.009912178
0002f0 00 22 7d bb 06 89 e6 bc 2c 4e 38 bd 50 83 93 3b
       -0.0038625002 -0.02814151 -0.044996426 0.0045017377
000300 98 2c 89 3c 04 d4 1d bd 7e da 7f 3d b8 7e 62 3d
       0.016744897 -0.038532272 0.06246423 0.05529663
000310 5c 51 a4 3c 0c 3d 1c bc ae 7d 89 bc e4 af df 3c
       0.020058326 -0.009536039 -0.016783562 0.02730555
000320 22 59 79 3d 64 b3 34 bd 60 a8 cd ba 24 71 68 bc
       0.06087602 -0.044116393 -0.0015690438 -0.014187131
000330 8c d0 09 bc 2c 48 76 3d 04 44 e6 3c 6a da 3b 3d
       -0.008411538 0.060127422 0.028108604 0.045862593
000340 16 5f 1a bd 0d 30 23 bd 00 d5 9e 39 34 9f d4 3c
       -0.037688337 -0.039840747 0.00030294806 0.02595482
000350 1a d2 28 bd 14 cd 9c 3c 6a 49 67 bd 4c 07 1d 3d
       -0.041215993 0.019140758 -0.056466497 0.038337037
000360 ae 4f 1f bd c0 76 03 3d 54 b9 3f bc 2c e1 1b bd
       -0.038894348 0.03209567 -0.0117019005 -0.038056538
000370 f8 a6 ca 3c 02 02 97 bc 4a 1d 6e 3d 4c 5e 26 3d
       0.02473782 -0.018433575 0.0581334 0.040617272
000380 00 a4 ac 3b 2c 23 46 3d f8 2a dc 3c e0 64 a8 3b
       0.0052685738 0.048373386 0.026875958 0.0051389784
000390 00 4f 44 3b e3 c2 5b bd d8 4e 98 3c 00 7a a7 bc
       0.0029954314 -0.053652655 0.018592283 -0.020443916
0003a0 78 9a 5b 3d c0 d9 0a 3d 58 47 fa bb e2 75 1a bd
       0.05361411 0.03389907 -0.0076378994 -0.037710078
0003b0 28 63 51 bd 2c c1 27 bd 1c f7 08 bd 10 a3 b3 bb
       -0.051119953 -0.040955707 -0.033438787 -0.005482085
0003c0 c8 94 7b bc 2e c8 fe bc 8e 51 14 3d d0 86 8b 3c
       -0.015355296 -0.031101312 0.03621059 0.017032057
0003d0 78 e3 7c 3c 30 52 16 bb 20 b4 6b 3b d2 bb 00 bd
       0.015435092 -0.002293717 0.0035965517 -0.03142912
0003e0 06 0c 06 bd 9b f7 44 bd b0 6f c7 3b a2 bf 3e bd
       -0.03272631 -0.048087697 0.0060863122 -0.046569474
0003f0 1b 90 58 bd 5a 03 9f bc 73 f8 41 bd 8c ca 21 3d
       -0.052871805 -0.019410778 -0.04735608 0.039499804

network_body.processors.0.conv_layers.2.bias f4 [32]
000000 48 1a 36 3c 10 a9 81 3b 1e 34 75 bd e0 fc a0 3c
       0.011114664 0.0039569214 -0.059864156 0.01965183
000010 40 6f 2a bd 60 fb 9e 3c 12 de ba bc 82 32 1f bd
       -0.041610003 0.019406974 -0.02281097 -0.038866527
000020 50 38 87 3c fd ff 5f bd d9 d6 5c bd 30 98 18 bc
       0.016506344 -0.05468749 -0.053915832 -0.009313628
000030 2d 2e 4d bd 40 c3 70 3b f2 ff 69 bd 70 6f e4 bc
       -0.050092865 0.0036737472 -0.057128854 -0.027885169
000040 80 84 41 3a 1a 0e 1c 3d a4 c5 69 bd b8 a3 8e 3c
       0.000738211 0.038099386 -0.05707325 0.017412052
000050 b6 43 e4 bc d8 9d 42 3d 6a d3 6d 3d a0 15 55 bb
       -0.027864318 0.047513813 0.05806295 -0.003251411
000060 41 98 69 bd 80 40 3f ba 1c 05 8e 3c 4f 62 38 bd
       -0.057029966 -0.0007295683 0.01733642 -0.04501563
000070 88 c1 29 3d 74 fb 6a 3d 08 11 55 3d 12 6b 03 3d
       0.04144433 0.05736871 0.052018195 0.032084532

network_body.processors.0.dense.0.weight f4 [128, 288]
000000 79 c0 99 bd ae 37 fa 3d ca a3 95 bd 15 db e6 3d
       -0.07507414 0.12217651 -0.07306631 0.11272255
000010 ff 46 09 be f7 ca 8e 3c 31 c9 3f bd b1 94 ea 3c
       -0.13405989 0.017430766 -0.04682273 0.028635355
000020 15 1e 33 3e b9 cb d0 3c 10 da 81 3d c1 1b 88 3c
       0.17491944 0.025487768 0.0634042 0.016614797
000030 96 56 41 bd 74 be 90 3d 74 ba 00 3d 21 d9 03 bd
       -0.047201715 0.07067576 0.031427816 -0.032189492
000040 3d 55 f3 3c 42 ed 18 bd 28 77 3d 3e 1f 60 12 bd
       0.02970373 -0.03733564 0.18502486 -0.0357362
000050 b9 f5 f3 3d 5e 9e 2c be f8 4b 94 bc 6e db d9 3c
       0.11912102 -0.16857287 -0.018102631 0.02659389
000060 be e0 bf bd 77 23 b2 bd 7a 49 d7 3b 48 3b a6 bd
       -0.09369038 -0.08698171 0.0065700384 -0.08116776
000070 f6 03 e8 3b 12 4b 0e bd 11 4e 6c 3d 23 04 4f bd
       0.0070805503 -0.03473956 0.057691637 -0.050541054
000080 60 58 d3 bd 8a e6 15 3e b2 f8 f8 3d 15 f3 7c bd
       -0.103195906 0.14638725 0.1215681 -0.06175526
000090 f4 b8 41 3d 71 28 e0 bd 9b b8 1a 3c 99 fe 70 bd
       0.047295526 -0.109452136 0.009443427 -0.058836553
0000a0 49 a3 d1 bc 84 d8 09 3c ff f9 8a bd f4 ec af 3c
       -0.025590556 0.008413438 -0.06785964 0.021475293
0000b0 71 f2 69 3c 51 90 15 3d bd 92 27 3d b3 14 f9 3c
       0.014278994 0.036514584 0.040911425 0.030405378
0000c0 69 72 cf bc a4 2d c0 3d fe 5f e1 3c 97 db 5b 3d
       -0.02532311 0.09383705 0.027511593 0.053676214
0000d0 b8 a1 54 bc 99 d5 a2 3a 82 77 99 3d 81 24 43 3e
       -0.01297801 0.0012423276 0.074934974 0.19056894
0000e0 11 62 52 3d f5 3b 16 3b d1 f4 e2 3d f3 21 c0 3b
       0.051363055 0.002292392 0.11081851 0.005863422
0000f0 83 56 19 3d d2 cb 7f 3d e1 74 55 3d 4d 89 83 3a
       0.03743602 0.062450238 0.052113418 0.0010035426
000100 b1 42 56 3d c5 da a6 bc aa ed ae 3d 0f d7 aa 3d
       0.052309696 -0.02036799 0.085414246 0.083418004
000110 1d d8 04 3e d2 0e 82 bc 66 9a 33 3e 0d 5d 19 be
       0.12973066 -0.015876208 0.17539367 -0.14976902
000120 22 a7 92 bd 4e 32 97 bd 83 24 f7 3d a9 11 47 b9
       -0.07160784 -0.07382642 0.12067511 -0.00018984698
000130 47 00 b0 bd 23 ce b0 3d 71 ab 64 3d 76 17 9d bd
       -0.08593803 0.086330675 0.05582756 -0.076704904
000140 d7 9a 93 3d 1f 73 a7 bd e0 52 7b 3c f2 54 37 bc
       0.07207268 -0.081762545 0.015339583 -0.011189686
000150 ee 84 17 bb 27 e8 01 bd 6a d3 32 bd 14 55 00 3d
       -0.0023120004 -0.03171554 -0.04365865 0.031331137
000160 fc 11 eb 3c a0 77 07 be 2f 43 c9 bd 2b e3 43 3e
       0.028695099 -0.13229227 -0.098272674 0.19129626
000170 c3 d5 1d bc de d2 74 3c 83 50 33 3d 77 62 88 3d
       -0.009633484 0.014942853 0.043777954 0.06659406
000180 a0 23 ac bc ef ca 8b 3c 33 d6 27 3e d8 20 1a 3e
       -0.021013081 0.01706454 0.16390304 0.15051591
000190 2e 57 bd bd 70 3b 8a bd 5a 53 91 bc e8 8f b5 bd
       -0.09245144 -0.06749618 -0.01773994 -0.088653386
0001a0 f1 94 ee bd 42 4d 56 bd ee 0a 2d 3d ea 94 21 3d
       -0.11649502 -0.052319773 0.04224675 0.039448656
0001b0 12 2b 12 be 3e 1f 18 3e c3 c0 90 3b 22 85 c5 3d
       -0.14274243 0.14855668 0.0044175102 0.09644534
0001c0 9f 46 03 3e 0a da 10 bd cb ff e7 3d 53 df 44 bd
       0.12819909 -0.03536419 0.113280855 -0.04806454
0001d0 9f b5 90 bc a1 6d 94 3c e3 fd 0b be 90 48 aa 3c
       -0.017664729 0.018118681 -0.13671069 0.020786554
0001e0 e7 07 8e 3d 5d 8f ab 3c 5e 38 16 be d3 3d 02 be
       0.06935101 0.020942384 -0.1466994 -0.12718897
0001f0 e4 35 98 3d 7b ce 3b 3c 02 ce 01 3e cb 2c 9e 3c
       0.07432154 0.011462803 0.12676242 0.019308468
000200 6c a1 2b 3d be 4c 18 3e 00 19 b9 bc ee 5e 28 3b
       0.04190199 0.14873025 -0.022594929 0.0025691348
000210 d2 4f 3c bd ac be 0b be 75 11 57 bd 79 ec 1c 3e
       -0.04597456 -0.13646954 -0.052506883 0.15324582
000220 91 7f 62 be 97 08 09 bd 09 79 a9 3d dc 24 9d bd
       -0.22118975 -0.033455458 0.08275039 -0.07673046
000230 10 f1 61 bc e3 95 a4 bb 25 51 9a bd 3a 95 8b bd
       -0.013790384 -0.0050227507 -0.07535008 -0.06815572
000240 7e ae bf bc 7b 26 83 3d 97 70 c5 bd 2f f2 01 3c
       -0.023398634 0.06403824 -0.096406154 0.007931276
000250 f0 35 e5 bc 2a 74 34 3e e2 48 ab bd 88 19 e5 3d
       -0.027979821 0.17622438 -0.08363511 0.1118651
000260 0b f8 25 3e bd 7d 7b bd f7 d8 8e 3d 27 d3 dc 3c
       0.16207902 -0.06139921 0.069749765 0.026956154
000270 32 0e ca 3d 05 33 2e bd dc fe c6 bc 71 19 fe 3d
       0.09865989 -0.042529125 -0.024291448 0.12407196
000280 a0 2e 4d bd 60 1d eb 3c 6f 2e e5 3d 0f 15 5d bd
       -0.050093293 0.02870053 0.11190497 -0.05397516
000290 14 f6 1d bd 7b 72 78 bd 3e d4 91 3d 7d 17 38 3d
       -0.038564757 -0.060656052 0.0712056 0.044944275
0002a0 a6 1e b3 3b 6a 34 e2 bd 62 b2 03 3c d7 0c 2b 3d
       0.0054663 -0.110451534 0.008038135 0.041760292
0002b0 3b ab 3b be 60 a1 a6 bc d6 1d 03 bd f6 70 cb bd
       -0.18327038 -0.020340621 -0.032010876 -0.09933655
0002c0 de 81 01 3e d4 94 3f 3e 06 0b 43 3d c8 28 32 3e
       0.12647197 0.18709117 0.047617935 0.1739837
0002d0 ec 70 9f 3d 87 f5 f9 bc 1a 34 77 3d 31 1e cc bd
       0.0778521 -0.030512584 0.060352422 -0.09966696
0002e0 05 d2 8b 3d 3e e4 88 3d ee e9 b5 3d 39 72 78 bd
       0.068271674 0.06684159 0.08882509 -0.060655806
0002f0 00 0e e5 bc db 4d 3c 3d 19 9f fb 3a 7c 01 ce 3c
       -0.027960777 0.045972686 0.0019197195 0.025147192
000300 36 5a c5 3d c1 3c 9b ba b0 f8 be bd b0 42 82 3d
       0.09636347 -0.0011843668 -0.09324777 0.06360376
000310 b6 c6 ab bb ee b7 62 bd 28 d2 2a bc 6f fc 8f bd
       -0.005242194 -0.05535119 -0.010426082 -0.0703057
000320 47 21 10 bd 6a 2a 4c bd 0f a4 07 3d b1 74 1c be
       -0.035187986 -0.049845137 0.033115443 -0.15278889
000330 fd 87 70 3d ce 39 99 bc 1f 8e 00 be 24 24 a3 bc
       0.05872344 -0.018704321 -0.12554215 -0.019914694
000340 30 dd 05 bd db d4 39 3c 71 09 e6 3d ba 33 9b bc
       -0.032681644 0.011342253 0.112322696 -0.018945564
000350 36 32 63 bd ae 50 ca 3d 8b 6b ee bb ff 76 6c 3d
       -0.055467807 0.0987867 -0.0072760037 0.05773067
000360 34 6a e9 bc d6 75 4c bd f1 ad b1 bd 74 c9 44 3d
       -0.028493024 -0.049917065 -0.08675755 0.048043683
000370 b2 80 ae bd 4b de e0 bc 98 26 8c 3d 49 fc b9 bd
       -0.085206404 -0.027449748 0.06843299 -0.09081323
000380 6a 9b 81 bd 47 6b ef bd 58 48 37 3d 04 41 1f 3d
       -0.06328471 -0.116903834 0.044746727 0.038880363
000390 44 8e ab bd 4a a4 99 bc 66 32 81 3c 9d 1a b4 bd
       -0.083767444 -0.018755097 0.015771102 -0.087941386
0003a0 78 37 37 bd e8 48 aa bd 89 b3 ca 3a b4 59 03 bd
       -0.044730633 -0.08314687 0.0015464883 -0.03206797
0003b0 33 d8 2e 3d f8 3f f0 bd 9c 09 84 3c 05 c3 a4 bd
       0.042686652 -0.11730951 0.016117863 -0.080450095
0003c0 0b aa d6 3c 7f cc c1 3d bf a5 92 3a 19 ca 0a 3e
       0.02620413 0.09462833 0.0011188312 0.13553657
0003d0 83 99 f6 3d c6 84 30 bd 89 c8 a1 bd 04 a2 63 3c
       0.12040999 -0.043095373 -0.07899577 0.013893608
0003e0 71 33 3d 3e af 1a cb 3b e9 98 6b bd ae 26 35 3d
       0.18476655 0.0061982493 -0.057518873 0.04422634
0003f0 97 02 46 3d cd b3 65 bd 36 63 1e bc 0c 73 a4 3c
       0.048342314 -0.056079675 -0.009667208 0.02007439
